model/model_torch.pth (torch, 334008 bytes, 15 tensors)

char_embeddings.weight f4 [81, 64]
0.0 0.0 0.0 0.0 0.0 0.0 0.0 0.0
0.0 0.0 0.0 0.0 0.0 0.0 0.0 0.0
0.0 0.0 0.0 0.0 0.0 0.0 0.0 0.0
0.0 0.0 0.0 0.0 0.0 0.0 0.0 0.0
0.0 0.0 0.0 0.0 0.0 0.0 0.0 0.0
0.0 0.0 0.0 0.0 0.0 0.0 0.0 0.0
0.0 0.0 0.0 0.0 0.0 0.0 0.0 0.0
0.0 0.0 0.0 0.0 0.0 0.0 0.0 0.0
-0.5692481 0.9199714 1.1108161 1.2898741 -1.478174 2.5672328 -0.4731198 0.33555076
-1.629326 -0.54974365 -0.47983426 -0.49968153 -1.0669804 1.1149396 -0.14067143 0.8057536
-0.093348235 0.6870502 -0.83831537 0.00089182175 0.8418941 -0.40003416 1.039462 0.3581531
-0.24600095 2.3025165 -1.8816892 -0.049727023 -1.0449786 -0.9565008 0.03353186 0.7100866
1.645867 -1.3601689 0.34456542 0.5198677 -2.6133225 -1.6964744 -0.22824179 0.279955
0.2469264 0.076887004 0.3380058 0.45440176 0.45694014 -0.86537135 0.78130794 -0.9267894
-0.21883368 -2.4350653 -0.07291476 -0.03398641 0.9625183 0.34916824 -0.921462 -0.056194786
-0.6226985 -0.46372217 1.9217824 -0.40254554 0.12390248 1.1647835 0.9233735 1.3872952
-0.97415024 0.49063352 -0.013119289 0.27918795 0.36974853 0.047281284 1.8072459 -0.56841713
0.10856197 0.2532125 -0.15726243 0.12628186 -0.07683926 -0.10185455 -0.3677935 0.10293104
-0.36272487 -0.005682748 0.42350858 1.284356 0.50848174 1.5996562 0.09893162 0.52486515
0.061954286 -0.25595453 -0.89821506 0.07017881 -0.6632201 0.6346077 0.07116094 0.046706937
0.2666568 -0.6623549 0.9120832 -0.35565534 0.9208119 -0.24829644 0.14897501 0.60084516
0.49961105 0.8439687 1.5093676 1.007005 -0.07047732 -0.74916106 0.5327421 -1.4977577
-0.6375931 -0.23354776 -1.6431721 -0.19232483 0.88915575 0.1989478 2.3690767 1.5594709
-1.3254153 -0.75971615 1.840851 -0.3166324 0.47402602 -0.29428756 -0.94514567 -0.99543494
-0.19270813 0.5550176 0.30420515 0.17559688 0.28891125 0.26163334 0.12823796 0.3483244
0.058553055 -0.30287492 0.1030375 0.6769173 0.26119164 -0.50010425 0.8728642 -0.34703666
0.95643675 0.6809447 0.43129832 0.4990189 -1.0587071 0.53872824 -0.09420435 -0.913024
0.7497889 0.25008556 0.03172852 0.8493216 0.1860397 0.2984087 -0.5523292 0.06465571
0.12287734 0.8228775 0.15617883 0.21165743 -0.0397771 0.24485774 -0.061235957 -0.77145827
-0.0992398 -0.080506034 -0.26299518 0.41695514 -0.34764183 0.02241615 0.72612286 -0.9991555
-0.61089504 -0.91959083 0.121667735 -0.4648504 0.60874087 0.1732866 -0.04081336 0.16678187
-0.3917214 0.78774536 0.12533233 -0.32491332 -0.30375746 0.10331584 1.1338009 0.13789809
00000000: 0000 0000 0000 0000 0000 0000 0000 0000
00000010: 0000 0000 0000 0000 0000 0000 0000 0000
00000020: 0000 0000 0000 0000 0000 0000 0000 0000
00000030: 0000 0000 0000 0000 0000 0000 0000 0000
00000040: 0000 0000 0000 0000 0000 0000 0000 0000
00000050: 0000 0000 0000 0000 0000 0000 0000 0000
00000060: 0000 0000 0000 0000 0000 0000 0000 0000
00000070: 0000 0000 0000 0000 0000 0000 0000 0000
00000080: 0000 0000 0000 0000 0000 0000 0000 0000
00000090: 0000 0000 0000 0000 0000 0000 0000 0000
000000a0: 0000 0000 0000 0000 0000 0000 0000 0000
000000b0: 0000 0000 0000 0000 0000 0000 0000 0000
000000c0: 0000 0000 0000 0000 0000 0000 0000 0000
000000d0: 0000 0000 0000 0000 0000 0000 0000 0000
000000e0: 0000 0000 0000 0000 0000 0000 0000 0000
000000f0: 0000 0000 0000 0000 0000 0000 0000 0000
00000100: 3eba 11bf 3f83 6b3f 392f 8e3f 981a a53f
00000110: ce34 bdbf 8b4d 2440 c23c f2be 4fcd ab3e
00000120: c18d d0bf 00bc 0cbf d6ac f5be 42d6 ffbe
00000130: d092 88bf 57b6 8e3f 2c0c 10be de45 4e3f
00000140: 5c2d bfbd 86e2 2f3f d69b 56bf 25c9 693a
00000150: 5f86 573f 47d1 ccbe 170d 853f d85f b73e
00000160: ace7 7bbe 6e5c 1340 31db f0bf 90ae 4bbd
00000170: dcc1 85bf 3ddd 74bf b458 093d 3cc8 353f
00000180: c5ab d23f 041a aebf e16a b03e 0d16 053f
00000190: ad40 27c0 1326 d9bf 37b8 69be 4356 8f3e
000001a0: 46da 7c3e ef76 9d3d 190f ad3e 59a7 e83e
000001b0: 0ff4 e93e fa88 5dbf cc03 483f 1242 6dbf
000001c0: f015 60be 1cd8 1bc0 5554 95bd 5535 0bbd
000001d0: 9967 763f 2ec6 b23e efe4 6bbf 812c 66bd
000001e0: 2b69 1fbf fe6c edbe f7fc f53f 731a cebe
000001f0: 95c0 fd3d a017 953f 3562 6c3f e492 b13f
00000200: e961 79bf 5134 fb3e 49f2 56bc b9f1 8e3e
00000210: ae4f bd3e 05aa 413d d553 e73f c983 11bf
00000220: bd55 de3d 12a5 813e 6709 21be 0850 013e
00000230: e75d 9dbd 1e99 d0bd 6e4f bcbe 82cd d23d
00000240: 13b7 b9be 5836 babb 1ed6 d83e c765 a43f
00000250: dc2b 023f 89c1 cc3f a99c ca3d 905d 063f
00000260: c7c3 7d3d 790c 83be 6cf1 65bf e8b9 8f3d
00000270: cbc8 29bf a675 223f d4bc 913d c64f 3f3d
00000280: 3d87 883e 1790 29bf 497e 693f 7518 b6be
00000290: 54ba 6b3f 6c41 7ebe e88c 183e fdd0 193f
000002a0: 05cd ff3e 550e 583f f532 c13f 8ae5 803f
000002b0: 6a56 90bd 05c9 3fbf c961 083f 86b6 bfbf
000002c0: 4d39 23bf 2527 6fbe 7753 d2bf cdf0 44be
000002d0: b69f 633f f9b8 4b3e f49e 1740 be9c c73f
000002e0: 35a7 a9bf c27c 42bf 01a1 eb3f a41d a2be
000002f0: 8ab3 f23e dcac 96be 11f5 71bf d3d4 7ebf
00000300: 4855 45be a215 0e3f c7c0 9b3e abcf 333e
00000310: 2dec 933e cef4 853e d050 033e 9357 b23e
00000320: 54d5 6f3d 6c12 9bbe 5305 d33d 744a 2d3f
00000330: e9ba 853e d506 00bf 0774 5f3f caae b1be
00000340: 0ad9 743f 6452 2e3f 22d3 dc3e 687f ff3e
00000350: b783 87bf 18ea 093f 36ee c0bd f1bb 69bf
00000360: 2af2 3f3f 370b 803e c4f5 013d 246d 593f
00000370: 3181 3e3e 06c9 983e 7265 0dbf 366a 843d
00000380: 1da7 fb3d 1aa8 523f 58ed 1f3e babc 583e
00000390: 50ed 22bd fdbb 7a3e 8ed2 7abd 4a7e 45bf
000003a0: 3c3e cbbd 59e0 a4bd 4ea7 86be 257b d53e
000003b0: 1cfe b1be 13a2 b73c 30e3 393f a8c8 7fbf
000003c0: 9e63 1cbf 4e6a 6bbf ef2c f93d df00 eebe
000003d0: 71d6 1b3f 0b72 313e e92b 27bd dec8 2a3e
000003e0: b58f c8be aea9 493f 1e57 003e 0a5b a6be
000003f0: 1986 9bbe 4197 d33d 6320 913f 2835 0d3e

single_token_backbone.layers.0.0.weight f4 [64, 64, 3]
0.23603962 -0.32577458 0.027298559 -0.41703328 0.0059263078 0.368102 -0.30165187 0.23300388
-0.08108651 -0.136422 0.07517106 -0.2101613 -0.27333993 0.09042694 -0.21176937 -0.4058109
-0.19918413 -0.20862627 0.09666058 -0.1940441 -0.14953178 -0.30220246 0.176762 -0.1551435
0.18451384 -0.097785406 0.14947206 -0.12025043 -0.29789823 -0.17244256 0.05502041 0.06214481
-0.19673632 -0.2513621 0.048724506 0.10662337 -0.12762836 0.18004228 -0.1800006 0.085559815
0.016820664 -0.08356636 -0.030448755 0.22554734 -0.18294834 -0.21589623 0.14906213 -0.26699877
-0.10609284 0.28914088 -0.026518608 -0.049165674 -0.27169508 -0.007299482 -0.05736653 -0.09275085
-0.16380355 -0.3380596 -0.06592599 -0.060674645 0.3217014 -0.14693196 0.020215226 -0.30285725
-0.29681602 -0.23512068 -0.30486172 -0.3372215 -0.11985579 0.33652225 0.17216465 0.24824715
-0.039288472 -0.27957085 -0.028294746 -0.0073478525 -0.036918167 -0.11978215 -0.0028126016 -0.010392167
-0.13155636 0.3297697 0.60474646 -0.033834856 -0.5938668 -0.080764264 0.07119286 -0.57077825
-0.43774986 0.070769206 0.083479114 0.05848623 0.2306725 0.03404073 -0.36332297 0.051225558
-0.21690446 -0.15325513 0.021140395 -0.5133032 -0.39926842 0.003996407 0.09890766 0.32463655
0.03128749 -0.038812596 -0.02920729 0.0001501327 -0.07481875 0.20226157 0.101496086 0.16442418
-0.22006226 -0.02858998 0.36096203 0.15547077 0.18682425 0.10311938 -0.15846878 0.3170849
0.63375086 0.55848426 0.2383789 -0.1532152 -0.04138138 -0.3878385 -0.023013478 0.09318009
0.027996972 -0.36439723 -0.07564709 -0.24318081 0.28838813 0.1542538 0.30031365 -0.60263586
0.09990505 -0.010118799 -0.5232824 0.09752079 -0.09660607 0.13048606 0.18490958 0.2549069
0.44680166 0.5046681 -0.12458307 0.40407404 0.17200084 0.15294144 0.38007742 -0.13857517
0.47351667 0.07347363 -0.057966325 0.110940486 -0.4778142 -0.09093158 -0.054226283 0.20884466
-0.19995889 0.24815407 0.16265608 -0.47291 0.0823954 -0.50801396 0.25080696 0.06995626
0.16804075 0.09932878 0.028899921 -0.36890596 0.1728828 -0.21585937 -0.2405175 0.3594965
0.09559807 0.25355726 -0.027404577 0.11190407 0.30017868 0.38082343 -0.2827544 0.05100022
-0.35369644 0.18068413 -0.43854675 0.3027465 -0.03570812 0.4747428 -0.019421197 0.1539443
0.003880834 0.41443637 -0.42324537 -0.14698039 -0.14985669 -0.47180668 0.28015524 0.16728887
0.13465577 0.27719462 0.14319754 0.05174442 -0.04399728 -0.339879 0.1166591 0.16180184
-0.15514024 -0.50175756 -0.25748453 -0.043381747 -0.16998455 -0.1963242 0.0738905 0.35633236
0.17422946 0.33247373 0.038023315 0.5723455 0.29924718 -0.024313094 0.5553491 -0.47421128
0.66015923 -0.2751304 -0.08213435 -0.2099598 -0.0054532588 -0.22629829 -0.63268995 0.01494222
0.13698094 0.39976048 -0.12503201 0.14827806 -0.057058297 -0.20007722 -0.011252355 0.13881692
-0.36459637 -0.42239988 -0.0437476 -0.13587795 0.23162378 -0.42605168 0.16520798 0.08724187
0.05872937 -0.3332885 -0.043848634 -0.075448856 0.05817759 0.09312859 0.16037321 0.028316455
00000000: 5fb4 713e edcb a6be 3aa1 df3c 6385 d5be
00000010: 7931 c23b de77 bc3e 1d72 9abe 9298 6e3e
00000020: af10 a6bd 35b2 0bbe 49f3 993d 8634 57be
00000030: 36f3 8bbe c231 b93d 12da 58be 72c6 cfbe
00000040: edf6 4bbe 20a2 55be fbf5 c53d 7fb3 46be
00000050: dc1e 19be 48ba 9abe 1901 353e f0dd 1ebe
00000060: 32f1 3c3e b743 c8bd 340f 193e dc45 f6bd
00000070: 1e86 98be c894 30be 155d 613d 8e8b 7e3d
00000080: 3f75 49be 88b2 80be 5993 473d 5a5d da3d
00000090: 02b1 02be 015d 383e 1452 38be fc39 af3d
000000a0: 7dcb 893c d724 abbd ab6f f9bc e2f5 663e
000000b0: cf56 3bbe e713 5dbe bea3 183e 10b4 88be
000000c0: 3447 d9bd 460a 943e 8d3d d9bc f261 49bd
000000d0: 9e1b 8bbe 7e30 efbb 2bf9 6abd 28f4 bdbd
000000e0: 1ebc 27be 2616 adbe 3504 87bd fa85 78bd
000000f0: 0cb6 a43e 5575 16be 679a a53c 1b10 9bbe
00000100: 45f8 97be 7ac3 70be d616 9cbe 4ca8 acbe
00000110: f476 f5bd a54c ac3e ee4b 303e 8034 7e3e
00000120: f3ec 20bd e923 8fbe 62ca e7bc 41c6 f0bb
00000130: 8137 17bd 5850 f5bd a053 38bb e843 2abc
00000140: b6b6 06be 93d7 a83e aad0 1a3f 6b96 0abd
00000150: a807 18bf bc67 a5bd 90cd 913d 861e 12bf
00000160: c020 e0be 72ef 903d 19f7 aa3d 428f 6f3d
00000170: 6935 6c3e 4b6e 0b3d 7805 babe e4d1 513d
00000180: 341c 5ebe eaee 1cbe 9f2e ad3c d767 03bf
00000190: e96c ccbe 4bf4 823b 1990 ca3d c336 a63e
000001a0: 5027 003d f5f9 1ebd 2044 efbc f16c 1d39
000001b0: 933a 99bd a81d 4f3e 2edd cf3d d05e 283e
000001c0: 0058 61be 8935 eabc 04d0 b83e bb33 1f3e
000001d0: db4e 3f3e 4130 d33d a445 22be f458 a23e
000001e0: 7f3d 223f d3f8 0e3f 9919 743e 72e4 1cbe
000001f0: 867f 29bd c592 c6be c386 bcbc 34d5 be3d
00000200: e859 e53c 4692 babe ddec 9abd 6404 79be
00000210: 9ca7 933e b5f4 1d3e b6c2 993e 5846 1abf
00000220: 059b cc3d 52c9 25bc d6f5 05bf fbb8 c73d
00000230: 67d9 c5bd 239e 053e f058 3d3e 2883 823e
00000240: 30c3 e43e ee31 013f 6925 ffbd cbe2 ce3e
00000250: fd20 303e ae9c 1c3e 8299 c23e a6e6 0dbe
00000260: c770 f23e 5879 963d 196e 6dbd c434 e33d
00000270: 10a4 f4be 563a babd 611c 5ebd 60db 553e
00000280: 06c2 4cbe 1a1c 7e3e 518f 263e 4221 f2be
00000290: ebbe a83d 340d 02bf c569 803e 3a45 8f3d
000002a0: e012 2c3e e36c cb3d 87bf ec3c 3ee1 bcbe
000002b0: 3008 313e 3d0a 5dbe 384a 76be ed0f b83e
000002c0: ecc8 c33d 42d2 813e 907f e0bc f62d e53d
000002d0: 05b1 993e 4afb c23e 2fc5 90be 9be5 503d
000002e0: b317 b5be 4305 393e 3389 e0be 9701 9b3e
000002f0: ad42 12bd 7d11 f33e 3419 9fbc 93a3 1d3e
00000300: 9755 7e3b 0131 d43e 9eb3 d8be 0782 16be
00000310: 0874 19be a590 f1be 8270 8f3e c64d 2b3e
00000320: 34e3 093e 74ec 8d3e 60a2 123e f5f1 533d
00000330: 7e36 34bd 9f04 aebe f7ea ee3d 62af 253e
00000340: 15dd 1ebe 2f73 00bf 03d5 83be 0fb1 31bd
00000350: 6e10 2ebe 3609 49be e753 973d 3271 b63e
00000360: 3569 323e ff39 aa3e 56be 1b3d 3c85 123f
00000370: ed36 993e 412c c7bc 5c2b 0e3f d2cb f2be
00000380: 3200 293f e4dd 8cbe 0e36 a8bd b4ff 56be
00000390: 40b1 b2bb bdba 67be f8f7 21bf 37d0 743c
000003a0: bb44 0c3e 68ad cc3e 6408 00be 34d6 173e
000003b0: f6b5 69bd 0be1 4cbe cc5b 38bc 0626 0e3e
000003c0: 60ac babe cc44 d8be af30 33bd 9723 0bbe
000003d0: c92e 6d3e 7223 dabe 482c 293e deab b23d
000003e0: 358e 703d caa4 aabe a09a 33bd ee84 9abd
000003f0: a04b 6e3d 34ba be3d e038 243e e9f7 e73c

single_token_backbone.layers.0.0.bias f4 [64]
-1.0587262 -0.6407099 -0.7526982 -0.053446535 0.32562953 -0.7916259 0.21667445 -0.38314146
-0.6566516 -0.24718544 -0.1759773 -0.9127247 -0.21952145 -0.2714257 -0.94338214 0.219274
0.17558362 -0.08932236 0.11102285 -0.7773359 -0.82892984 -0.74368775 -0.6904815 -0.5588377
-0.53444916 -0.43138978 -0.26197144 -0.24581526 -0.16145371 -1.0623205 -0.75077623 -0.1563597
-0.6670922 -1.0001842 -1.1080934 -0.29981112 -0.15446608 0.13011892 -0.052629784 -0.95586556
-0.5942569 -1.3417679 -0.05400363 -1.0890145 -0.88785803 -0.9920933 -0.6356639 -0.17298861
-0.09223586 -0.27946892 -0.11514939 -0.7975327 0.14772877 0.14935213 -0.98580986 -0.9152029
-0.090526216 -0.568014 -0.3573628 -0.038129892 -0.81710905 -0.2561185 -0.059950393 -0.023680344
00000000: 5784 87bf 9005 24bf d4b0 40bf c1ea 5abd
00000010: eab8 a63e ffa7 4abf e8df 5d3e 1e2b c4be
00000020: 521a 28bf 2e1e 7dbe 6533 34be 53a8 69bf
00000030: 3bca 60be 4ff8 8abe 7e81 71bf 5d89 603e
00000040: 31cc 333e a4ee b6bd f35f e33d 7cff 46bf
00000050: bf34 54bf 5262 3ebf 65c3 30bf fd0f 0fbf
00000060: a9d1 08bf 1fdf dcbe 1f21 86be ffb6 7bbe
00000070: 1f54 25be 1efa 87bf df32 40bf c21c 20be
00000080: 8ec6 2abf 0906 80bf 01d6 8dbf d880 99be
00000090: 5b2c 1ebe e53d 053e 5492 57bd 9bb3 74bf
000000a0: 3821 18bf 0dbf abbf e932 5dbd d464 8bbf
000000b0: aa4a 63bf d4f9 7dbf dfba 22bf ed23 31be
000000c0: 28e6 bcbd 8d16 8fbe 72d3 ebbd 1a2b 4cbf
000000d0: 3646 173e c4ef 183e 095e 7cbf bd4a 6abf
000000e0: cf65 b9bd 5e69 11bf 42f8 b6be 172e 1cbd
000000f0: 0f2e 51bf f721 83be 8b8e 75bd 48fd c1bc

single_token_backbone.layers.1.0.weight f4 [64, 64, 3]
-0.19939817 -0.37915865 -0.21181545 -0.29480255 -0.19469272 -0.5908809 -0.49299502 -0.21928953
-0.5611694 -0.13732782 -0.22638282 0.15131688 -0.19544214 -0.11760814 -0.45310637 -0.086851664
-0.13556336 -0.5045843 0.29381835 0.1731077 0.009642434 -0.058536872 -0.17734246 0.062476378
-0.10128801 -0.3395693 -0.079194054 -0.0616602 -0.43365788 -0.43068478 -0.19170846 -0.10378124
0.09540965 -0.071486294 -0.2382672 -0.38489196 -0.551078 -0.07457852 -0.38192746 -0.05986214
-0.3621245 -0.40666324 -0.37264904 -0.16750057 0.016532985 -0.061526906 0.08852282 0.23615324
-0.015614438 0.057584524 -0.5106794 -0.19967107 -0.32996592 0.06069902 -0.13421758 0.20907876
-0.16064276 -0.11453921 -0.076100156 -0.35554954 0.5131311 -0.07834681 -0.3606945 -0.39820445
-0.46687016 -0.022378713 -0.06686927 -0.34317845 -0.8912868 0.07104595 0.21114524 -0.34498143
0.054067515 -0.3172575 -0.03269352 -0.2405297 0.13622467 0.2731613 -0.16097036 -0.09822623
-0.24750851 -0.053833727 0.12741719 0.29999664 -0.828936 -0.41788414 -0.618258 -0.53663105
-0.24713236 0.08792574 -0.22090392 0.057117395 -0.05228343 -0.38026157 -0.11391652 -0.15509185
-0.110231295 -0.13202305 0.15643765 -0.33858442 -0.17717746 -0.08867604 -0.11136878 -0.12237253
-0.20305973 0.20482683 -0.26523077 0.06174042 -0.46228543 -0.09623256 0.19219513 -0.41077763
-0.1211911 0.08407109 -0.0018872558 0.19583751 -0.41271344 -0.16389115 0.023620911 -0.26171708
0.6202279 -0.12906016 0.12991269 -0.37417418 -0.39600122 0.046139497 -0.005438096 -0.19940114
-0.28615734 -0.35785016 -0.07365755 -0.18278818 0.15164474 0.44059506 -0.08864986 -0.24155909
-0.21991406 -0.4544502 -0.6303996 -0.41358426 -0.14343569 0.049325097 -0.12585984 0.44247997
-0.0925901 -0.15237953 -0.10709236 -0.2061913 0.120591514 -0.023668904 -0.055126783 -0.022290004
-0.010735716 0.32274443 -0.094555385 0.17266744 -0.15646227 0.35955608 -0.34793484 -0.09090218
-0.084318064 0.22248495 -0.4019677 -0.18212742 -0.071134016 -0.32898873 -0.29683977 -0.044281796
0.105814554 -0.08608055 0.07740359 0.11793924 -0.031316143 0.06972212 -0.0040739942 -0.24762113
-0.26962674 0.015141607 -0.014246476 -0.22062714 0.014753667 -0.41137764 -0.4443411 0.09558429
-0.14862189 0.2055452 -0.22418293 -0.1754315 0.12474899 0.31025407 0.116205744 0.10482179
-0.31415758 -0.44427067 0.18623844 -0.234602 -0.69847584 -0.05405566 0.2090216 0.08688217
-0.23723601 0.104322575 -0.5494701 -0.16159974 0.17436741 -0.01714105 -0.023078157 -0.47971806
-0.056736097 -0.040701296 -0.44673294 -0.4921751 0.088203646 0.22160245 0.58520323 0.4496986
0.010136556 -0.22283766 0.059874065 -0.15856364 -0.08326984 0.14951444 0.15486726 0.0020848014
0.060219523 -0.4210625 -0.65535355 0.1513263 -0.29186293 -0.0147637995 -0.24675456 0.10095043
-0.019741714 0.12457107 -0.23840977 -0.3685656 -0.8625174 -0.38054547 -0.24640597 -0.023756526
-0.1362274 -0.21131724 -0.0461134 -0.38399324 0.32984483 -1.166584 0.31698316 0.22654475
-0.39810002 -0.5057952 0.2161476 -0.2674409 0.41718113 -0.02368192 0.40343192 0.38022637
00000000: 092f 4cbe 1521 c2be 26e6 58be 5cf0 96be
00000010: 875d 47be f843 17bf d869 fcbe 6f8d 60be
00000020: cca8 0fbf aa9f 0cbe e6d0 67be d0f2 1a3e
00000030: fc21 48be 89dc f0bd 8ffd e7be 49df b1bd
00000040: 1fd1 0abe 702c 01bf 5c6f 963e 2543 313e
00000050: 4dfb 1d3c 5cc4 6fbd 4399 35be 3be7 7f3d
00000060: 1770 cfbd 07dc adbe 7e30 a2bd 688f 7cbd
00000070: 6808 debe b782 dcbe 394f 44be 428b d4bd
00000080: 2266 c33d 6867 92bd 51fc 73be 8f10 c5be
00000090: 7313 0dbf a0bc 98bd ff8b c3be 0132 75bd
000000a0: 6268 b9be 2a36 d0be dbcb bebe 4585 2bbe
000000b0: 2f70 873c a303 7cbd 744b b53d 28d2 713e
000000c0: b3d3 7fbc c0dd 6b3d e3bb 02bf 9376 4cbe
000000d0: 4bf1 a8be 899f 783d 5570 09be be18 563e
000000e0: 897f 24be 8993 eabd 66da 9bbd 970a b6be
000000f0: 8f5c 033f 4b74 a0bd f3ac b8be 74e1 cbbe
00000100: 9b09 efbe 9053 b7bc c1f2 88bd 16b5 afbe
00000110: 5f2b 64bf 8a80 913d 7536 583e 68a1 b0be
00000120: e675 5d3d 936f a2be a4e9 05bd 6b4d 76be
00000130: 7b7e 0b3e ccdb 8b3e 6ad5 24be d52a c9bd
00000140: df72 7dbe c180 5cbd a779 023e 2999 993e
00000150: 2635 54bf e9f4 d5be 2846 1ebf a760 09bf
00000160: 4410 7dbe 6912 b43d a334 62be eef3 693d
00000170: 2627 56bd a5b1 c2be 104d e9bd 66d0 1ebe
00000180: f2c0 e1bd 0d31 07be 3131 203e f05a adbe
00000190: 026e 35be c99b b5bd 5115 e4bd 739e fabd
000001a0: e4ee 4fbe 20be 513e 54cc 87be 86e3 7c3d
000001b0: adb0 ecbe 9415 c5bd cdce 443e 7251 d2be
000001c0: 0a33 f8bd 772d ac3d cc5d f7ba a189 483e
000001d0: 2d4f d3be 15d3 27be a480 c13c c8ff 85be
000001e0: 41c7 1e3f 5928 04be d507 053e c293 bfbe
000001f0: acc0 cabe c5fc 3c3d 0e32 b2bb d02f 4cbe
00000200: 3783 92be 2338 b7be c5d9 96bd d32c 3bbe
00000210: c248 1b3e ad95 e13e 0f8e b5bd 445b 77be
00000220: 2731 61be b2ad e8be de61 21bf 51c1 d3be
00000230: cee0 12be 1d09 4a3d 67e1 00be bc8c e23e
00000240: e19f bdbd 6109 1cbe 3d53 dbbd d023 53be
00000250: aff8 f63d 4ae5 c1bc 9fcc 61bd 8799 b6bc
00000260: dbe4 2fbc c23e a53e 41a6 c1bd bccf 303e
00000270: a537 20be bc17 b83e 8424 b2be ec2a babd
00000280: f3ae acbd 18d3 633e b6ce cdbe 9c7f 3abe
00000290: b6ae 91bd 3671 a8be 62fb 97be d460 35bd
000002a0: 4db5 d83d 004b b0bd c685 9e3d 218a f13d
000002b0: 5b45 00bd 79ca 8e3d 247f 85bb 6590 7dbe
000002c0: 840c 8abe 8114 783c 0d6a 69bc 15ec 61be
000002d0: 5db9 713c 17a0 d2be ad80 e3be b2c1 c33d
000002e0: 5630 18be 717a 523e 3690 65be 51a4 33be
000002f0: 667c ff3d 9fd9 9e3e 47fd ed3d ceac d63d
00000300: 43d9 a0be 7277 e3be 4ab5 3e3e 823b 70be
00000310: 50cf 32bf 7869 5dbd c209 563e 47ef b13d
00000320: ffed 72be 13a7 d53d 13aa 0cbf 677a 25be
00000330: 5f8d 323e 636b 8cbc 670e bdbc 9b9d f5be
00000340: 1c64 68bd 67b6 26bd 2eba e4be 60fe fbbe
00000350: 1da4 b43d c1eb 623e e1cf 153f e53e e63e
00000360: cc13 263c 8e2f 64be 823e 753d 825e 22be
00000370: 6189 aabd 501a 193e 8695 1e3e 2aa1 083b
00000380: bfa8 763d 8195 d7be 40c5 27bf 48f5 1a3e
00000390: 0f6f 95be dde3 71bc 3aad 7cbe 19bf ce3d
000003a0: 60b9 a1bc 1e1f ff3d b121 74be a1b4 bcbe
000003b0: f1cd 5cbf dbd6 c2be d951 7cbe 0c9d c2bc
000003c0: 327f 0bbe 8c63 58be 68e1 3cbd c39a c4be
000003d0: 6ce1 a83e a052 95bf 9e4b a23e 59fb 673e
000003e0: c4d3 cbbe cb7b 01bf cc55 5d3e 03ee 88be
000003f0: c498 d53e 9600 c2bc a18e ce3e 08ad c23e

single_token_backbone.layers.1.0.bias f4 [64]
0.0662306 -0.41948134 -0.9910977 -0.547607 -0.078086846 -0.35502458 0.045992758 -0.1627638
-0.45433116 -0.47810885 -0.88419396 0.06593462 -0.41422063 -0.25804147 -0.43448907 0.041990496
0.064293645 -0.18968719 0.08654109 -0.6511953 -1.0494817 -0.89594984 -0.3642103 -0.3553032
0.2453884 -0.12631461 -0.076896176 -0.35444015 -1.3700649 -0.28413168 -1.1924875 -0.6378067
-0.25069234 -0.9128981 -0.57428765 0.0501974 -0.2057251 -0.41265544 -0.3994615 -0.538823
-0.019879866 -0.4339288 -0.52657986 -0.41914535 -0.08555643 -0.83201903 -0.31703508 -0.18463735
-0.052073397 -0.54217154 0.117640816 -0.4293288 0.23979181 -0.4007719 -0.17338762 0.03709215
-0.7159601 -1.0366899 -0.8111478 -0.25550005 -0.39755973 -0.5609319 -0.2828232 -0.805496
00000000: e9a3 873d 42c6 d6be 94b8 7dbf f92f 0cbf
00000010: ffeb 9fbd c8c5 b5be e762 3c3d 8eab 26be
00000020: 189e e8be afca f4be 895a 62bf bb08 873d
00000030: ba14 d4be 031e 84be 5a75 debe 3afe 2b3d
00000040: 63ac 833d 5c3d 42be 743c b13d bcb4 26bf
00000050: 6b55 86bf f85c 65bf c679 babe 4dea b5be
00000060: 1947 7b3e 9e58 01be be7b 9dbd 2e79 b5be
00000070: 495e afbf b579 91be 6ea3 98bf 4d47 23bf
00000080: bf5a 80be b1b3 69bf 8404 13bf ca9b 4d3d
00000090: 9aa9 52be 9347 d3be 3886 ccbe 4ef0 09bf
000000a0: 1adb a2bc ea2b debe f0cd 06bf 389a d6be
000000b0: 3638 afbd 33ff 54bf 6c52 a2be 9311 3dbe
000000c0: ea4a 55bd c1cb 0abf abed f03d fcd0 dbbe
000000d0: fc8b 753e f931 cdbe 868c 31be f0ed 173d
000000e0: 2949 37bf 41b2 84bf 62a7 4fbf e7d0 82be
000000f0: f38c cbbe 3c99 0fbf 34ce 90be fc34 4ebf

single_token_backbone.layers.2.0.weight f4 [64, 64, 3]
-0.16314736 -0.42563063 -0.014368728 -0.046064455 0.021795249 -0.3568514 -1.0033097 -0.32901812
-0.8248643 -0.32123682 -0.41947788 -0.065673806 -0.51957405 -0.44499743 -0.38146415 -0.44970518
0.12326602 -0.658286 -0.058219213 -0.15674001 -0.4274131 -0.17760457 -0.08069156 0.08724461
-0.1682366 -0.5514092 -0.17991653 -0.2769019 -0.06730488 -0.39336315 -0.26024053 0.2085816
0.092914894 -0.33997446 -0.5131022 -0.2703022 -0.5485044 -0.46710443 -0.39359736 -0.14340971
-0.36974347 -0.33239022 -0.21168175 -0.70366967 -0.11912116 -0.7531468 0.12788442 0.05171115
0.025514795 -0.14192513 -0.2236567 -0.4308863 -0.06553162 -0.388327 -0.0811641 -0.24773699
-0.13537459 0.020266552 0.038068723 -0.2967541 0.1629904 0.07155203 -0.37007737 -0.11456316
0.13286343 0.17557423 0.1068144 -0.23027441 -0.45872474 0.19170886 -0.20914504 -0.22027567
-0.21985886 0.11426354 0.053171083 -0.240046 0.36993203 0.37639353 -0.14749968 -0.10018478
-0.64336014 -0.2430933 -0.010384732 -0.12907049 -1.1421652 -0.2366319 -0.47652048 -0.18720335
-0.2457583 -0.18753362 0.07837298 -0.6219147 -0.20933948 -0.19884267 -0.003866028 -0.2501629
0.33739597 -0.0023272873 0.08910708 -0.51342386 -0.36720008 -0.42952183 -0.36524794 -0.08757258
0.21230578 0.16624065 -0.34780952 0.16778728 0.0011952262 -0.14126928 0.15282993 0.23110956
-0.30255985 -0.1703745 -0.043839153 -0.0655533 0.049598295 0.011781747 0.07210269 0.22029759
0.38766876 0.14780551 -0.03638698 -0.29481572 -0.08649675 -0.008557254 -0.2724001 -0.2885532
0.192335 -0.28967556 0.11086927 -0.0007277213 -0.12374675 0.38496074 0.31237793 -0.46237156
-0.17591104 -0.55500025 -0.28481042 0.23511988 -0.29461744 -0.20059839 0.03841326 0.14989936
-0.3132232 -0.19120134 -0.13016821 -0.13357846 0.169978 -0.27099824 0.48565155 -0.35623878
0.07874017 -0.20373097 0.17545682 0.07362736 -0.27074423 -0.33562517 -0.28285903 0.37160444
-0.14266409 -0.3606474 -0.036154926 0.053102538 0.18711142 -0.059075557 -0.42479146 -0.5728504
0.15891528 0.27832183 0.044721663 0.008966787 -0.3562506 0.1566367 -0.79124415 0.027101455
0.06989858 0.1222965 0.25581294 0.23556384 0.063307 -0.44667748 -0.088513725 -0.09284092
-0.36327776 0.28869936 -0.4092363 -0.1972653 -0.2872901 -0.3413728 0.25754175 0.08038651
-0.106993526 -0.30396628 -0.3732214 0.018442744 -0.37429237 0.17299168 -0.08208944 -0.13377191
-0.14063618 -0.140391 -0.032816105 -0.43349728 -0.3563899 -0.6821751 -0.40027046 -0.5404332
-0.3261496 -0.3832673 -0.4524059 -1.1145772 -0.60665846 -0.852954 -0.21333614 -0.04133236
0.10042831 -0.018053954 -0.3830557 -0.10746824 -0.48874643 -1.2415931 -0.36951703 0.21035172
0.39193392 0.06322907 -0.59881514 -0.71003485 -0.009509493 -0.7596794 -0.25410685 -0.026226552
-0.15080558 0.13248321 -0.70784163 -0.36785448 -0.25398505 -0.23717418 -0.8205012 -0.038698535
-0.35467696 -0.2747373 -0.056806605 0.09725166 -0.14912945 0.0492431 -0.83108044 -0.0402641
0.17744938 -0.11351646 -0.20686975 -0.108869396 -0.39298263 -0.52152586 0.5881906 -0.0024362728
00000000: 1a10 27be 42ec d9be d06a 6bbc 15ae 3cbd
00000010: f38b b23c 3ab5 b6be 746c 80bf 1075 a8be
00000020: 4f2a 53bf 2779 a4be cec5 d6be fd7f 86bd
00000030: ce02 05bf b4d6 e3be 454f c3be c23f e6be
00000040: e572 fc3d 6e85 28bf 4577 6ebd 7480 20be
00000050: e4d5 dabe f9dd 35be 9e41 a5bd 4dad b23d
00000060: 3746 2cbe 2729 0dbf 0a3c 38be 16c6 8dbe
00000070: 24d7 89bd e566 c9be 3f3e 85be 6a96 553e
00000080: 2a4a be3d 2211 aebe aa5a 03bf 0d65 8abe
00000090: c96a 0cbf 5028 efbe 9885 c9be ffd9 12be
000000a0: 044f bdbe 0d2f aabe 1ac3 58be b223 34bf
000000b0: cbf5 f3bd 3bce 40bf 22f4 023e 12cf 533d
000000c0: 6704 d13c d254 11be 4306 65be 219d dcbe
000000d0: 7135 86bd ccd2 c6be 5d39 a6bd c4ae 7dbe
000000e0: a39f 0abe 0a06 a63c f3ed 1b3d 27f0 97be
000000f0: f5e6 263e df89 923d c87a bdbe 17a0 eabd
00000100: 5a0d 083e bbc9 333e 82c1 da3d 0ecd 6bbe
00000110: f8dd eabe 544f 443e 1e2a 56be f28f 61be
00000120: ae22 61be 0103 ea3d ecc9 593d 9ece 75be
00000130: bb67 bd3e a7b6 c03e 280a 17be ae2d cdbd
00000140: 40b3 24bf 73ed 78be b924 2abc 0e2b 04be
00000150: 7832 92bf a24f 72be 7efa f3be 3cb2 3fbe
00000160: 10a8 7bbe d008 40be 0382 a03d cd35 1fbf
00000170: 175d 56be 6a9d 4bbe 305d 7dbb 5a15 80be
00000180: 2abf ac3e 6785 18bb c67d b63d bf6f 03bf
00000190: a601 bcbe 49ea dbbe c701 bbbe 4159 b3bd
000001a0: b066 593e fd3a 2a3e 1714 b2be 6ed0 2b3e
000001b0: 23a9 9c3a e5a8 10be 737f 1c3e fca7 6c3e
000001c0: 20e9 9abe a776 2ebe af90 33bd cf40 86bd
000001d0: 9527 4b3d 3b08 413c 93aa 933d b195 613e
000001e0: 857c c63e 545a 173e 840a 15bd 16f2 96be
000001f0: 3525 b1bd ba33 0cbc 0778 8bbe 3fbd 93be
00000200: 77f3 443e 5b50 94be 6e0f e33d 8dc4 3eba
00000210: f06e fdbd 9319 c53e 00f0 9f3e f7bb ecbe
00000220: 0622 34be 7f14 0ebf acd2 91be 44c3 703e
00000230: 19d8 96be aa69 4dbe 3957 1d3d 387f 193e
00000240: cb5e a0be 49ca 43be d14a 05be cbc8 08be
00000250: b60e 2e3e 48c0 8abe 52a7 f83e ee64 b6be
00000260: 8742 a13d da9e 50be f4aa 333e f1c9 963d
00000270: fd9e 8abe 10d7 abbe e6d2 90be f042 be3e
00000280: 8916 12be c7a6 b8be 3017 14bd 0c82 593d
00000290: 239a 3f3e 36f9 71bd 447e d9be 53a6 12bf
000002a0: b0ba 223e 3380 8e3e 102e 373d 6ee9 123c
000002b0: 7b66 b6be 5f65 203e fa8e 4abf df03 de3c
000002c0: fd26 8f3d 9676 fa3d eaf9 823e a637 713e
000002d0: 1aa7 813d e9b2 e4be af46 b5bd 6123 bebd
000002e0: 8bff b9be 67d0 933e 6c87 d1be eaff 49be
000002f0: b017 93be 6ac8 aebe 83dc 833e afa1 a43d
00000300: 6c1f dbbd 78a1 9bbe e016 bfbe 3d15 973c
00000310: 40a3 bfbe bb24 313e 821e a8bd 81fb 08be
00000320: ee02 10be a9c2 0fbe 2e6a 06bd 5bf3 ddbe
00000330: bd78 b6be 07a3 2ebf 40f0 ccbe d559 0abf
00000340: 15fd a6be 9d3b c4be bfa1 e7be 77aa 8ebf
00000350: f84d 1bbf 315b 5abf ca74 5abe 1f4c 29bd
00000360: 5cad cd3d e3e5 93bc e01f c4be 4f18 dcbd
00000370: f93c fabe 86ec 9ebf 5631 bdbe 7166 573e
00000380: 90ab c83e 3e7e 813d f34b 19bf d8c4 35bf
00000390: b4cd 1bbc 597a 42bf 4b1a 82be 11d9 d6bc
000003a0: c76c 1abe aea9 073e 1c35 35bf 6c57 bcbe
000003b0: 540a 82be cadd 72be 5e0c 52bf 5b82 1ebd
000003c0: 3898 b5be 5eaa 8cbe 0bae 68bd e12b c73d
000003d0: 64b5 18be 22b3 493d b0c1 54bf f8eb 24bd
000003e0: 4ab5 353e 517b e8bd aad5 53be ebf6 debd
000003f0: 0535 c9be b882 05bf a993 163f e0a9 1fbb

single_token_backbone.layers.2.0.bias f4 [64]
-0.06601624 -0.81506014 -0.7229934 -0.48836318 -0.38790986 -0.74709857 -0.5227904 -0.32471627
-0.8301324 -0.30892435 -0.9392128 -0.34080425 -1.0700239 -0.36189035 -0.43325242 -0.63153607
-0.72764134 -0.4136726 0.3392948 -0.7678832 -0.13274087 -0.4946716 -0.2767537 -0.6175485
-0.6369181 -0.97947156 -0.4585632 -1.1737225 -1.094695 -0.683544 -0.9506607 -0.5917627
-1.1170979 -0.40628397 -0.9627495 -0.6316747 -1.0578204 -0.61695635 -0.54891896 -0.6137636
0.46044326 -0.5882669 -1.123716 -0.99787956 -0.80718 -0.98911554 -0.4345592 -0.25867397
0.39244616 -0.47953445 -0.18209204 -0.19778664 -0.6797457 -0.5279264 -0.80879503 -0.36035413
-0.16745634 -0.5228583 -0.5116176 0.18922311 -0.022195185 -0.2718914 0.2193847 -0.18426488
00000000: 8633 87bd c8a7 50bf 1816 39bf bd0a fabe
00000010: 1f9c c6be da41 3fbf 97d5 05bf 3641 a6be
00000020: 8f83 54bf 552b 9ebe 4070 70bf e57d aebe
00000030: 8bf6 88bf b149 b9be 43d3 ddbe 59ac 21bf
00000040: b446 3abf e5cc d3be 0cb8 ad3e fe93 44bf
00000050: 39ed 07be 9945 fdbe a9b2 8dbe a917 1ebf
00000060: 110d 23bf a6be 7abf ccc8 eabe 8a3c 96bf
00000070: f71e 8cbf bdfc 2ebf 805e 73bf c37d 17bf
00000080: 10fd 8ebf 7404 d0be c076 76bf 6fb5 21bf
00000090: a966 87bf daf0 1dbf f485 0cbf 9c1f 1dbf
000000a0: 38bf eb3e a998 16bf edd5 8fbf 0975 7fbf
000000b0: 59a3 4ebf ad36 7dbf 8b7e debe ea70 84be
000000c0: b4ee c83e 8a85 f5be 5676 3abe 9588 4abe
000000d0: d003 2ebf 2f26 07bf 310d 4fbf 5680 b8be
000000e0: ad79 2bbe 0bda 05bf 5ff9 02bf b4c3 413e
000000f0: add2 b5bc 5935 8bbe 62a6 603e efaf 3cbe

context_backbone.layers.0.0.weight f4 [64, 64, 3]
0.27979368 -0.42619592 0.41679385 0.25458026 -0.0059350575 -0.19244131 0.2148842 -0.036626935
-0.18169224 -0.32532385 -0.1824744 -0.46767762 0.31690943 -0.001890265 0.042634357 -0.18654329
0.04668981 0.07371405 -0.087070785 0.051029976 0.19060287 0.05388456 -0.3037053 -0.20755284
-0.036516473 -0.13737623 0.0074849287 -0.21298699 0.052362185 -0.11897558 0.15917479 0.4234862
-0.11779937 0.13305259 -0.41987643 -0.6672479 -0.40742356 -0.012974813 -0.29966548 0.20083944
0.23595458 0.18765604 0.120780855 0.08837112 0.4793466 -0.068724066 -0.17749804 0.08410672
0.087170675 0.32199827 0.15183364 -0.3419401 -0.26527083 0.15303013 0.05182888 -0.133031
0.15942155 -0.04965294 -0.06943255 -0.28966 0.15410757 -0.3514333 0.30813137 0.15699686
0.15988454 -0.0437077 -0.15299699 0.041034278 -0.24742098 -0.2513437 -0.16486546 -0.10340622
0.019356022 0.07329115 0.2836743 -0.23246521 -0.34614265 0.08523982 -0.38791424 0.18614338
-0.5963221 0.031723358 0.1469777 -0.27000096 -0.24890213 -0.09418803 0.34145683 0.31858766
0.1835839 -0.022842979 0.08166555 -0.113620356 -0.1479189 0.09743992 0.23439725 0.28124177
0.123620555 -0.019103019 0.27939773 0.56856835 -0.06997277 0.13036448 0.037389766 0.04926653
0.26810294 0.003828713 0.22747864 -0.1584914 0.14408778 -0.2760054 0.23022941 0.060864035
-0.07612987 -0.11868657 0.1254029 0.023121888 0.090763174 0.27195606 -0.034669984 0.27464584
0.10360183 0.15428598 0.04450918 -0.13149434 -0.062313043 0.077802464 0.31301433 -0.211044
-0.1987326 -0.16219188 0.13998017 -0.38532206 -0.3161823 -0.22690912 -0.3072704 -0.0027834156
-0.06291416 -0.19888268 -0.043222107 -0.12639312 -0.27864018 0.26213175 0.07003806 -0.04362308
-0.00721544 0.017906882 -0.026782772 0.08651269 0.4038536 -0.19998391 0.15824275 -0.032346416
0.29484582 -0.11993621 -0.01651977 0.25503013 0.13132754 0.037172783 -0.09040743 0.25052428
-0.021690764 0.14779025 -0.43527701 -0.38360593 -0.560583 -0.051954716 -0.5123132 -0.107307576
-0.38412303 -0.20606884 0.02753795 0.1887544 0.2531849 0.02059268 -0.15923312 0.26893014
-0.17537929 0.18940768 -0.026640961 0.25812143 -0.41942817 0.2506842 0.06395177 -0.6013275
0.18987001 0.20634124 0.16957323 -0.026725201 0.1200899 -0.6348687 -0.039790154 0.21428022
-0.3168061 -0.24992864 -0.4438344 0.38909733 -0.43890026 -0.032246824 0.21821241 0.09632776
0.09742663 -0.42993945 -0.067096405 0.028001664 0.010602594 -0.23400365 0.026471345 0.32964703
-0.36564356 0.035043757 -0.051023044 0.09096761 0.16850626 -0.26227286 -0.02502728 0.18322895
0.21592218 0.0023617996 0.029931212 -0.2715841 -0.08983973 0.078901894 -0.36242595 0.24996269
-0.4450462 -0.5231293 -0.1113822 0.2242405 0.16263409 -0.30186763 0.23835789 0.07910841
-0.09858702 -0.3858843 -0.14937323 -0.1416619 -0.10524034 -0.011059154 0.012046745 0.10003296
0.0943456 0.009668974 -0.21440767 0.026354773 -0.003185673 -0.2285133 -0.2702051 -0.23431802
-0.3140285 -0.2941311 0.14069422 0.13307951 0.12719958 -0.23229986 0.023254322 -0.10380468
00000000: 1e41 8f3e 5a36 dabe 0166 d53e 5858 823e
00000010: df7a c2bb 560f 45be 9b0a 5c3e 2006 16bd
00000020: 880d 3abe d990 a6be 92da 3abe 7173 efbe
00000030: f441 a23e c5c2 f7ba 5da1 2e3d 3405 3fbe
00000040: d03d 3f3d 64f7 963d 2b52 b2bd cf04 513d
00000050: 662d 433e 0eb6 5c3d 437f 9bbe bb88 54be
00000060: 4c92 15bd 5bac 0cbe 2244 f53b 4319 5abe
00000070: bb79 563d 78a9 f3bd b7fe 223e 2fd3 d83e
00000080: cc40 f1bd f03e 083e 0bfa d6be c2d0 2abf
00000090: d299 d0be 4f94 54bc c16d 99be dba8 4d3e
000000a0: 149e 713e e828 403e f45b f73d ebfb b43d
000000b0: eb6c f53e 34bf 8cbd 0cc2 35be 2540 ac3d
000000c0: 8a86 b23d f5dc a43e 477a 1b3e c612 afbe
000000d0: 94d1 87be eeb3 1c3e 854a 543d 4739 08be
000000e0: 673f 233e e260 4bbd a732 8ebd 514e 94be
000000f0: 60ce 1d3e 11ef b3be 65c3 9d3e c9c3 203e
00000100: c6b8 233e d806 33bd 3eab 1cbe 8f13 283d
00000110: ed5b 7dbe 1fb0 80be 7ed2 28be a4c6 d3bd
00000120: 8590 9e3c ac19 963d c23d 913e 5c0b 6ebe
00000130: 9c39 b1be 3792 ae3d b29c c6be 5f9c 3e3e
00000140: 91a8 18bf 5af0 013d 5281 163e 913d 8abe
00000150: 33e0 7ebe a7e5 c0bd 6ed3 ae3e ec1d a33e
00000160: 6bfd 3b3e 3321 bbbc 4540 a73d cab1 e8bd
00000170: 0d78 17be 958e c73d d505 703e ecfe 8f3e
00000180: c62c fd3d ef7d 9cbc 380d 8f3e b28d 113f
00000190: e24d 8fbd 447e 053e 0326 193d b3cb 493d
000001a0: ca44 893e 25eb 7a3b 29f0 683e 924b 22be
000001b0: bf8b 133e 9450 8dbe 42c1 6b3e 914c 793d
000001c0: fae9 9bbd f211 f3bd 9e69 003e 1d6a bd3c
000001d0: 0be2 b93d d33d 8b3e 1d02 0ebd 619e 8c3e
000001e0: 322d d43d 25fd 1d3e 424f 363d 74a6 06be
000001f0: f63b 7fbd e656 9f3d 6a43 a03e eb1b 58be
00000200: 8f80 4bbe a115 26be f656 0f3e ef48 c5be
00000210: a5e2 a1be dd5a 68be 8c52 9dbe f769 36bb
00000220: 24d9 80bd e7a7 4bbe aa09 31bd 336d 01be
00000230: eda9 8ebe 2236 863e 1d70 8f3d 1dae 32bd
00000240: 7f6f ecbb 74b1 923c 8b67 dbbc 912d b13d
00000250: e6c5 ce3e 95c8 4cbe 630a 223e ad7d 04bd
00000260: 08f6 963e 1ea1 f5bd 7854 87bc 4f93 823e
00000270: ba7a 063e 7d42 183d 8827 b9bd b844 803e
00000280: d4b0 b1bc 5456 173e a1dc debe ff67 c4be
00000290: 5e82 0fbf 78ce 54bd f526 03bf 13c4 dbbd
000002a0: c6ab c4be b603 53be 4497 e13c d548 413e
000002b0: 74a1 813e fbb1 a83c 020e 23be 36b1 893e
000002c0: a196 33be 16f4 413e 253e dabc 7e28 843e
000002d0: 4abf d6be ae59 803e 25f9 823d 99f0 19bf
000002e0: 496d 423e 1e4b 533e 9ba4 2d3e cfee dabc
000002f0: b2f1 f53d c186 22bf 00fb 22bd 466c 5b3e
00000300: 6934 a2be 4bed 7fbe 433e e3be c437 c73e
00000310: 89b7 e0be 3f15 04bd 1373 5f3e 7d47 c53d
00000320: 9d87 c73d 0621 dcbe d769 89bd bf63 e53c
00000330: 81b6 2d3c a79e 6fbe 6fda d83c 7fc7 a83e
00000340: a235 bbbe 0b8a 0f3d 8afd 50bd 3a4d ba3d
00000350: e88c 2c3e a148 86be 0306 cdbc 5fa0 3b3e
00000360: b41a 5d3e 6cc8 1a3b 4d32 f53c 120d 8bbe
00000370: e4fd b7bd 5197 a13d e58f b9be 38f6 7f3e
00000380: 18dd e3be cdeb 05bf 5a1c e4bd 4d9f 653e
00000390: 8d89 263e 658e 9abe 1714 743e 9703 a23d
000003a0: fee7 c9bd a192 c5be 4cf5 18be d10f 11be
000003b0: 3f88 d7bd 7431 35bc b65f 453c 15de cc3d
000003c0: 4438 c13d 9e6a 1e3c af8d 5bbe f7e5 d73c
000003d0: b9c6 50bb 64ff 69be 5358 8abe 10f1 6fbe
000003e0: 58c8 a0be 5a98 96be 2512 103e ff45 083e
000003f0: 9b40 023e 04e0 6dbe d97f be3c 8c97 d4bd

context_backbone.layers.0.0.bias f4 [64]
0.16956657 -0.15773448 -0.58531815 -0.03489804 -0.4129594 -0.18907344 -0.2697599 -0.13755798
-0.052333966 -0.35934514 -0.19747804 -0.4228562 -0.077785686 -0.71640867 -0.48466554 0.18646838
-0.32752642 -0.23466371 0.34877193 -0.51648796 0.11657906 -0.45985648 -0.5139013 -0.71161294
0.17457223 0.2722204 -0.3593762 -0.09396366 -0.30233502 -0.32161754 -0.21032993 -0.29399163
0.3102263 -0.73890096 0.06984172 -0.2958448 0.007906807 -0.3467282 -0.21672665 -0.14423983
0.28009748 -0.14770237 -0.39809498 -0.06652661 -0.15895405 -0.51713914 -0.14459272 0.10453678
0.26416296 -0.010411887 -0.08677884 -0.17339931 0.0028674405 -0.5001559 -0.14974986 -0.16184965
-0.08565659 -0.53257316 -0.017044254 0.23369485 -0.041925896 -0.14836833 0.3027652 0.071527116
00000000: dca2 2d3e 2685 21be 69d7 15bf 3ff1 0ebd
00000010: 6a6f d3be 789c 41be f81d 8abe 00dc 0cbe
00000020: 245c 56bd 16fc b7be af37 4abe 9c80 d8be
00000030: 1a4e 9fbd 8f66 37bf 1526 f8be 91f1 3e3e
00000040: 8bb1 a7be af4b 70be 3c92 b23e 8e38 04bf
00000050: 01c1 ee3d 4f72 ebbe 098f 03bf 442c 36bf
00000060: 10c3 323e 7960 8b3e 2800 b8be 0570 c0bd
00000070: a8cb 9abe 0eab a4be bb60 57be 1286 96be
00000080: fbd5 9e3e 9d28 3dbf 2d09 8f3d f878 97be
00000090: 8d8b 013c 5c86 b1be 97ed 5dbe 9bb3 13be
000000a0: f068 8f3e 4a3f 17be 1bd3 cbbe 1a3f 88bd
000000b0: dac4 22be 3b63 04bf 1d10 14be 6117 d63d
000000c0: 5e40 873e 9f96 2abc 1bb9 b1bd 978f 31be
000000d0: abeb 3b3b 380a 00bf 0758 19be eabb 25be
000000e0: b96c afbd b756 08bf 64a0 8bbc b44d 6f3e
000000f0: 7dba 2bbd deed 17be 0a04 9b3e cf7c 923d

context_backbone.layers.1.0.weight f4 [64, 64, 3]
0.05571312 -0.87694293 0.26847708 0.17816229 -0.17067751 0.0025158855 0.17869368 0.23934281
-0.5563195 0.07701808 0.121732675 -0.27715138 0.1600736 -0.17461663 0.13283736 -0.25953802
-0.1428334 0.07882579 -0.16293024 0.10556863 0.51897055 0.39503202 -0.059460886 0.12925915
-0.22747208 -0.32106268 -0.5333548 -0.39880514 -0.14944547 0.0443182 0.08843609 -0.3584764
-0.68142486 0.74819803 0.1458993 -0.1985758 -0.27267113 0.10667825 0.11642228 0.15431036
0.09259899 -0.80346954 0.43514165 0.13059843 0.015640665 -0.0981146 -0.035346057 0.34399557
-0.75779283 0.16956578 0.32819757 -0.42808765 -0.10394703 0.3725532 0.2630453 0.1349594
-0.6307287 0.1658609 -0.59926504 -0.3160604 -0.08012196 -0.14270267 0.22001462 0.08435315
-0.32632902 -0.481203 0.0907338 -0.112643495 0.056335956 0.054714557 -0.066155605 -0.089819476
0.11470345 0.18683611 0.3062425 0.04240432 -0.45843732 0.079637766 -0.47616765 -0.3687278
-0.6300137 -0.39402434 0.21006954 -0.16965835 0.08191844 -0.21638955 0.059834976 0.08670523
-0.02122452 -0.4708689 0.05052204 -0.21579044 -0.5625026 -0.093873784 -0.18861352 -0.12083152
-0.19628784 -0.1612546 0.17634492 0.5302512 -0.334544 -0.6164211 0.24923816 -0.17508927
-0.14446412 -0.32120574 0.077954546 -0.25282377 0.22601226 -0.22949278 0.05997504 -0.05348325
-0.40970764 0.027935343 -0.09427607 -0.18828385 0.18723388 -0.20375653 0.30920014 -0.2457159
0.1240466 -0.03921929 -0.08699502 0.05758084 -0.08638241 -0.12807855 0.16132699 0.06169172
0.08050184 -0.18800682 0.06446515 -0.2202329 -0.5866304 -0.16312739 0.3825867 0.36959538
-0.004469984 -0.4674634 -0.15248452 -0.100608975 -0.12856348 -0.13615043 -0.46655735 0.069034405
0.13211739 -0.0611629 -0.032125387 -0.6555712 0.21596855 -0.15024437 0.28550264 -0.44924814
-0.0071260165 -0.46412137 -0.05265537 -0.10100763 0.19162193 0.04120905 0.60239106 0.045045
-0.17460133 -0.38554445 0.11285841 -0.027448919 -0.5436428 0.044705622 -0.0030221066 0.13903612
-0.049432553 -0.48471856 0.21302699 0.07498356 0.06393473 0.14083584 -0.56852543 0.06543654
-0.10521806 -0.09169113 -0.03694883 0.16957127 -0.6993171 0.16794015 0.35042837 -0.22908382
0.2069846 0.17863561 0.32171792 -0.07821775 0.23258987 0.044802826 -0.059376188 -0.11744222
0.18882512 -0.31895736 -0.5763178 0.16797806 -0.56456774 0.019615138 0.08975326 0.085685775
0.11938615 -0.41744536 0.1220193 0.616054 -0.07819782 -0.40738153 -0.00062967057 0.18893899
-0.56610185 0.12606908 0.08177332 0.08466364 0.36932105 -0.06950682 -0.17075069 -0.28982142
0.049314972 0.20859425 0.0800869 -0.12224973 -0.28313765 0.33871403 -0.055137284 -0.22991525
-0.29001987 -0.5186354 -0.19254245 0.18399292 0.22591443 -0.5312609 -0.071973026 0.16280542
0.19606598 0.2232098 -0.059492327 -0.11068257 -0.4365625 0.013687255 -0.09735073 0.2332427
-0.044299204 -0.2470874 -0.10976967 -0.023272587 0.17024583 0.15760286 -0.0986257 -0.08810532
-0.022916289 -0.48817876 -0.0039049569 -0.2254776 -0.29051286 0.053166617 0.034003727 0.24671167
00000000: 7133 643d 557f 60bf d475 893e 2d70 363e
00000010: 16c6 2ebe 8ee1 243b 7afb 363e 4816 753e
00000020: f46a 0ebf a8bb 9d3d fb4e f93d c9e6 8dbe
00000030: 55ea 233e b4ce 32be 8406 083e 2be2 84be
00000040: eb42 12be 6a6f a13d 2fd7 26be 5e34 d83d
00000050: 41db 043f a341 ca3e 428d 73bd 835c 043e
00000060: 71ee 68be 5462 a4be f189 08bf 3030 ccbe
00000070: 3c08 19be 0087 353d fb1d b53d 388a b7be
00000080: dc71 2ebf e889 3f3f a066 153e 7457 4bbe
00000090: 8d9b 8bbe 207a da3d ce6e ee3d 8903 1e3e
000000a0: 8aa4 bd3d 2eb0 4dbf e3ca de3e 98bb 053e
000000b0: da20 803c 4ff0 c8bd 07c7 10bd 3020 b03e
000000c0: b6fe 41bf a7a2 2d3e 8309 a83e 4e2e dbbe
000000d0: 2ee2 d4bd 4bbf be3e e0ad 863e cc32 0a3e
000000e0: 7077 21bf 71d7 293e 6f69 19bf abd2 a1be
000000f0: fb16 a4bd a620 12be 834b 613e 58c1 ac3d
00000100: 9914 a7be 3d60 f6be a4d2 b93d a2b1 e6bd
00000110: 88c0 663d 5f1c 603d 977c 87bd 46f3 b7bd
00000120: a4e9 ea3d f751 3f3e d1cb 9c3e 27b0 2d3d
00000130: 4cb8 eabe 2019 a33d 3fcc f3be e4c9 bcbe
00000140: 9448 21bf 8fbd c9be 781c 573e ebba 2dbe
00000150: dbc4 a73d 3995 5dbe 8515 753d 8392 b13d
00000160: 0bdf adbc ba15 f1be 33f0 4e3d 2bf8 5cbe
00000170: 2c00 10bf e640 c0bd e723 41be 8476 f7bd
00000180: aeff 48be ed1f 25be c393 343e 8bbe 073f
00000190: 5a49 abbe c6cd 1dbf 4a38 7f3e 9a4a 33be
000001a0: 67ee 13be 1475 a4be a2a6 9f3d 1e72 81be
000001b0: c26f 673e 2800 6bbe 63a8 753d 4111 5bbd
000001c0: 33c5 d1be a9d8 e43c d013 c1bd 7bcd 40be
000001d0: 3dba 3f3e 8da5 50be 7b4f 9e3e f39c 7bbe
000001e0: 250c fe3d 68a4 20bd 722a b2bd e3d9 6b3d
000001f0: 43e9 b0bd 0627 03be e732 253e 75b0 7c3d
00000200: 26de a43d dc84 40be 4e06 843d bc84 61be
00000210: 692d 16bf de0a 27be 67e2 c33e 9b3b bd3e
00000220: f278 92bb 5d57 efbe e724 1cbe 140c cebd
00000230: 25a6 03be 056b 0bbe 9be0 eebe e961 8d3d
00000240: c849 073e f385 7abd e995 03bd 84d3 27bf
00000250: dc26 5d3e a9d9 19be 672d 923e da03 e6be
00000260: 5c81 e9bb 51a1 edbe 28ad 57bd 17dd cebd
00000270: 8a38 443e d2ca 283d 4d36 1a3f 1b81 383d
00000280: b1ca 32be 1566 c5be 4f22 e73d 8edc e0bc
00000290: 2d2c 0bbf 3e1d 373d 890e 46bb 7c5f 0e3e
000002a0: ca79 4abd 082d f8be bf23 5a3e fb90 993d
000002b0: 36f0 823d 4537 103e e28a 11bf 9803 863d
000002c0: 917c d7bd 8fc8 bbbd a857 17bd 17a4 2d3e
000002d0: 7206 33bf 81f8 2b3e 596b b33e f394 6abe
000002e0: c5f3 533e 41ec 363e 36b8 a43e a130 a0bd
000002f0: 0a2c 6e3e 2b83 373d 7234 73bd 8c85 f0bd
00000300: 5f5b 413e 614e a3be 9089 13bf 7102 2c3e
00000310: 8387 10bf edaf a03c 8fd0 b73d 067c af3d
00000320: ba80 f43d 66bb d5be 41e5 f93d b7b5 1d3f
00000330: 2e26 a0bd 5094 d0be 7a10 25ba 3979 413e
00000340: 0dec 10bf 4118 013e c578 a73d 2164 ad3d
00000350: a617 bd3e 9759 8ebd 45d9 2ebe 7963 94be
00000360: 7ffe 493d bb99 553e 9a04 a43d 115e fabd
00000370: 6bf7 90be ed6b ad3e a2d7 61bd e76e 6bbe
00000380: 7c7d 94be 4ac5 04bf d929 45be a468 3c3e
00000390: 1d56 673e b700 08bf 9866 93bd 77b6 263e
000003a0: 85c5 483e 1c91 643e 3aae 73bd 8bad e2bd
000003b0: 1f85 dfbe 8240 603c d25f c7bd 2dd7 6e3e
000003c0: 1573 35bd 7b04 7dbe ecce e0bd 27a6 bebc
000003d0: ec54 2e3e a562 213e 45fc c9bd 9070 b4bd
000003e0: f1ba bbbc 91f2 f9be 4eea 7fbb 9ae3 66be
000003f0: 1abe 94be 3dc5 593d 7e47 0b3d fca1 7c3e

context_backbone.layers.1.0.bias f4 [64]
0.05859474 -0.0841851 -0.13201122 -0.008798225 -0.25911787 -0.29009333 0.17318721 -0.19498283
-0.13142496 -0.3470105 -0.14241298 -0.6105281 -0.07373596 -0.3594743 -0.014843491 0.07385833
-0.53372943 -0.4388392 0.15316148 -0.119873464 0.1105932 -0.10168355 -0.35529295 -0.23487695
-0.043397225 0.26851803 -0.25342795 -0.17714863 0.031808782 -0.08323652 -0.3672376 -0.10703043
0.054324806 -0.2870199 -0.12008933 -0.072030336 0.08081715 -0.36893478 -0.33552012 -0.11777869
0.23508255 -0.17970398 -0.58237463 -0.1229148 -0.3412042 -0.5717466 0.017876023 0.06666241
0.28736073 0.20580116 0.04108325 -0.32720333 -0.35745013 -0.15324472 -0.29215765 -0.20413189
0.03795273 -0.44097427 -0.11488402 0.05655629 -0.13019457 -0.3182957 0.07350222 0.076026164
00000000: 0a01 703d 3d69 acbd f32d 07be 6e26 10bc
00000010: 19ab 84be 1d87 94be fd57 313e 94a9 47be
00000020: 4494 06be 5cab b1be b5d4 11be 924b 1cbf
00000030: e102 97bd 040d b8be 1d32 73bc 0943 973d
00000040: 7ea2 08bf 88af e0be 5dd6 1c3e 3880 f5bd
00000050: b07e e23d 773f d0bd f5e8 b5be 9583 70be
00000060: 4ac1 31bd 327b 893e 4fc1 81be 7366 35be
00000070: ed49 023d e977 aabd 9106 bcbe c532 dbbd
00000080: b083 5e3d 46f4 92be 65f1 f5bd a484 93bd
00000090: 7683 a53d 05e5 bcbe 4bc9 abbe f435 f1bd
000000a0: 7bb9 703e 5204 38be 8116 15bf c1ba fbbd
000000b0: 51b2 aebe fc5d 12bf bd70 923c 4d86 883d
000000c0: f220 933e 8abd 523e e946 283d 3287 a7be
000000d0: b403 b7be 2fec 1cbe b095 95be f307 51be
000000e0: 5274 1b3d 61c7 e1be 5048 ebbd 91a7 673d
000000f0: ba51 05be a7f7 a2be 5588 963d 9bb3 9b3d
