model/model_torch.pth (torch, 334008 bytes, 15 tensors)

char_embeddings.weight f4 [81, 64]
00000000: 0000 0000 0000 0000 0000 0000 0000 0000
00000010: 0000 0000 0000 0000 0000 0000 0000 0000
00000020: 0000 0000 0000 0000 0000 0000 0000 0000
00000030: 0000 0000 0000 0000 0000 0000 0000 0000
00000040: 0000 0000 0000 0000 0000 0000 0000 0000
00000050: 0000 0000 0000 0000 0000 0000 0000 0000
00000060: 0000 0000 0000 0000 0000 0000 0000 0000
00000070: 0000 0000 0000 0000 0000 0000 0000 0000
00000080: 0000 0000 0000 0000 0000 0000 0000 0000
00000090: 0000 0000 0000 0000 0000 0000 0000 0000
000000a0: 0000 0000 0000 0000 0000 0000 0000 0000
000000b0: 0000 0000 0000 0000 0000 0000 0000 0000
000000c0: 0000 0000 0000 0000 0000 0000 0000 0000
000000d0: 0000 0000 0000 0000 0000 0000 0000 0000
000000e0: 0000 0000 0000 0000 0000 0000 0000 0000
000000f0: 0000 0000 0000 0000 0000 0000 0000 0000
00000100: 3eba 11bf 3f83 6b3f 392f 8e3f 981a a53f
00000110: ce34 bdbf 8b4d 2440 c23c f2be 4fcd ab3e
00000120: c18d d0bf 00bc 0cbf d6ac f5be 42d6 ffbe
00000130: d092 88bf 57b6 8e3f 2c0c 10be de45 4e3f
00000140: 5c2d bfbd 86e2 2f3f d69b 56bf 25c9 693a
00000150: 5f86 573f 47d1 ccbe 170d 853f d85f b73e
00000160: ace7 7bbe 6e5c 1340 31db f0bf 90ae 4bbd
00000170: dcc1 85bf 3ddd 74bf b458 093d 3cc8 353f
00000180: c5ab d23f 041a aebf e16a b03e 0d16 053f
00000190: ad40 27c0 1326 d9bf 37b8 69be 4356 8f3e
000001a0: 46da 7c3e ef76 9d3d 190f ad3e 59a7 e83e
000001b0: 0ff4 e93e fa88 5dbf cc03 483f 1242 6dbf
000001c0: f015 60be 1cd8 1bc0 5554 95bd 5535 0bbd
000001d0: 9967 763f 2ec6 b23e efe4 6bbf 812c 66bd
000001e0: 2b69 1fbf fe6c edbe f7fc f53f 731a cebe
000001f0: 95c0 fd3d a017 953f 3562 6c3f e492 b13f
00000200: 5b01 53bf 7790 4c3d b353 82be 4725 ad3e
00000210: a994 dd3e 0cbf b23e 3216 ad3f 7930 0ebf
00000220: 3086 73bd 8ad2 d5bc f4b8 0cbf 6249 9cbe
00000230: d6f2 a23e 7fed 04bf c425 a9be e218 083e
00000240: 2141 d8be 34d6 85bd cfda be3e aac1 b83f
00000250: 223d 753f 6ab3 9f3f 4500 0cbd 4c10 a43c
00000260: da63 c4bd 34ce b6bd d1d0 27bf 350e a63d
00000270: 7fe4 c5bd f1f1 e93c ff11 babb 4732 de3d
00000280: d5ec f73e d701 5ebf 4e32 e13e dbbd 30be
00000290: bc3b 7c3f 41f6 a2be 9ed6 96bc 6209 e13e
000002a0: c5a0 a93e 2ca8 ba3f 43d7 c13d ed40 1a3f
000002b0: d5e1 d8bd 9dc7 c2be 69c0 043f 1b9f babf
000002c0: f074 c0be acd2 d0bd a562 ddbf b663 0f39
000002d0: 0dca 603f d58f 963e 26e4 ca3f 236f 903f
000002e0: 29ba 81bf d021 c0be 2571 ad3f 0f33 593d
000002f0: 46d6 083f db5a 9cbe a5c1 65bf 2780 15bf
00000300: 9434 43be 9f93 503f 58dc 013f 88fe 1e3e
00000310: 02ed 063f e646 773e 3890 353e f626 253f
00000320: 0f51 2c3c 63a8 88be 3fa5 e03d c823 d33e
00000330: 3dcd ce3e 2c47 e0be a1db 563e ce57 66be
00000340: 4b1d 123f cb33 c33e f45a 233f 313c 913e
00000350: a8a4 a0bf f2a6 483f a0b2 803e ad66 2cbf
00000360: de64 fb3e 0e91 b23e e32c 6e3e 34a9 9f3d
00000370: 44ad ad3e ad69 a43e 3288 ccbe aaf1 193e
00000380: f53c 993d 187f b93f de0e 173e aadf 3b3f
00000390: 9cf6 9e3c 9b4f ea3e 5b36 f13c 4c50 7dbe
000003a0: 91e6 7dbe 3a18 ec3e 39e4 233d 381f 2e3f
000003b0: 58ae 86be 944c 503f 0b1c 193f 78e9 ddbf
000003c0: aaca 08bf 7d4b 6fbf f057 0b3e 6933 1ebf
000003d0: 8300 933f a7ba 0d3d 1f09 cf3e 1adc 6b3e
000003e0: 305f eabe d924 8d3f eb64 aa3e 7145 27bf
000003f0: 569c a7be 5a49 e63c 44ce 663f c658 8f3d
0.0 0.0 0.0 0.0 0.0 0.0 0.0 0.0
0.0 0.0 0.0 0.0 0.0 0.0 0.0 0.0
0.0 0.0 0.0 0.0 0.0 0.0 0.0 0.0
0.0 0.0 0.0 0.0 0.0 0.0 0.0 0.0
0.0 0.0 0.0 0.0 0.0 0.0 0.0 0.0
0.0 0.0 0.0 0.0 0.0 0.0 0.0 0.0
0.0 0.0 0.0 0.0 0.0 0.0 0.0 0.0
0.0 0.0 0.0 0.0 0.0 0.0 0.0 0.0
-0.5692481 0.9199714 1.1108161 1.2898741 -1.478174 2.5672328 -0.4731198 0.33555076
-1.629326 -0.54974365 -0.47983426 -0.49968153 -1.0669804 1.1149396 -0.14067143 0.8057536
-0.093348235 0.6870502 -0.83831537 0.00089182175 0.8418941 -0.40003416 1.039462 0.3581531
-0.24600095 2.3025165 -1.8816892 -0.049727023 -1.0449786 -0.9565008 0.03353186 0.7100866
1.645867 -1.3601689 0.34456542 0.5198677 -2.6133225 -1.6964744 -0.22824179 0.279955
0.2469264 0.076887004 0.3380058 0.45440176 0.45694014 -0.86537135 0.78130794 -0.9267894
-0.21883368 -2.4350653 -0.07291476 -0.03398641 0.9625183 0.34916824 -0.921462 -0.056194786
-0.6226985 -0.46372217 1.9217824 -0.40254554 0.12390248 1.1647835 0.9233735 1.3872952
-0.82423943 0.04994246 -0.25454482 0.33817503 0.4327748 0.34911382 1.3522398 -0.55542713
-0.059454143 -0.02610137 -0.54969716 -0.30524737 0.31825894 -0.5192489 -0.33036625 0.13290742
-0.4223719 -0.06534997 0.37276313 1.4434102 0.95796406 1.2476628 -0.034179945 0.020027302
-0.09589358 -0.08926049 -0.65553004 0.081081785 -0.09662723 0.02855775 -0.005678415 0.108494334
0.48422876 -0.8672156 0.43983692 -0.17259924 0.9852865 -0.31828502 -0.018412884 0.4395247
0.3313047 1.4582572 0.09464886 0.6025532 -0.10589949 -0.38042918 0.51856095 -1.4579805
-0.37589216 -0.101964325 -1.7295729 0.00013674688 0.87808305 0.2940661 1.5850875 1.1283916
-1.0134937 -0.37525797 1.3550154 0.05302721 0.53451955 -0.30538067 -0.89748603 -0.5839867
-0.19063026 0.8147525 0.5072684 0.15526783 0.52705395 0.2414814 0.17730796 0.64512575
0.010517373 -0.2669097 0.10969018 0.41238236 0.4039096 -0.438043 0.2098222 -0.22494432
0.5707595 0.38125452 0.6381066 0.28366235 -1.2550249 0.7837974 0.2513628 -0.6734417
0.49100393 0.34876293 0.2325931 0.07795945 0.33921254 0.32111874 -0.3994766 0.15033594
0.0748233 1.4491911 0.14751765 0.7338816 0.019404702 0.4576386 0.029444864 -0.24737662
-0.24794985 0.46112233 0.040012572 0.68016386 -0.2630489 0.8136685 0.59808415 -1.7336874
-0.5343424 -0.9347456 0.13607764 -0.61797196 1.1484531 0.034601834 0.40436646 0.23033181
-0.45775747 1.102687 0.3328012 -0.65340334 -0.32736462 0.028111149 0.90158486 0.06999354

single_token_backbone.layers.0.0.weight f4 [64, 64, 3]
00000000: 3c65 1d3e 8ded 52be a193 713d ae73 8bbe
00000010: 1e74 063d 44eb 31bd e963 533e 13f3 c43e
00000020: 1b7a dcbd 008a f5bd 2828 8c3d 0c80 0ebc
00000030: 9ced 1cbe 6d16 013e 7471 eebe 44a7 7dbe
00000040: 6ec4 40be 34ef 73be fc0e e5be 4092 84bd
00000050: 0f72 66bd 988a 903d e8de 923e 32f1 e53d
00000060: 6388 e2bd 314e 73be 7a56 e1be cf79 02be
00000070: d513 4fbd 0aec 0bbf 4342 623e 0344 193e
00000080: ed07 483e 87db 573e f7b8 153e 59bb 753e
00000090: 0818 34be a058 003f b5fa 2cbe e79e d73c
000000a0: 72ec 16bd a0db a43d e70d a3bd 7df4 a2bd
000000b0: 74d1 2abe 91c9 403e 509f 163e 8d9d 79be
000000c0: 51e2 1bbe fc5c 1d3e 67fc 85be d2e4 f9be
000000d0: fe5b d4be e7c8 c6bd 13fd 9cbd 0458 273e
000000e0: e5e5 a03e 5c0e abbe 7c30 9fbd 8a75 edbe
000000f0: cdad bb3e 4b27 d6be b416 9bbe a667 65be
00000100: b5e2 49be 4a87 90bd 9a04 53bd 8810 11be
00000110: b6b4 eebe 9c11 123f 2207 29bd 8bf2 113f
00000120: 769f d1be 42d3 25bd 988b ab3d d40a 903e
00000130: d6c6 c13e c65e 18bd fd9a 89be 72a6 cf3d
00000140: e5de f8bd 8505 a53e 2249 2dbd 33a1 3ebd
00000150: dc99 00bf abff 0f3e 2cbe e4be f67b 3abe
00000160: fc19 23be 317d e53d e601 123e ea0f d13d
00000170: 1a2d ccbc c288 12bf a2de a7be a305 8dbe
00000180: 9674 9fbe 3a73 9dbd 4cd0 afbe 0a41 dbbe
00000190: 1bba 913d 6296 45be d4a2 ed3e 793a 203e
000001a0: b243 1b3f 3cfb f7be ce77 b6bd 98d0 963d
000001b0: c836 343e 424a d2bc c577 1b3e 6ec6 1f3e
000001c0: c138 b63d 98a4 463c f386 863e 41b8 633e
000001d0: 5d4f 623d 6f68 613b 9ada 4cbe 820e 2c3e
000001e0: d4a2 c53e 617c 3cbd 4908 bc3e 5c74 fcbe
000001f0: b260 2bbd 3d04 5cbe a210 ad3e 66b0 17bd
00000200: e50f 4bbe 0d76 2abf 9695 65bb 5617 1bbf
00000210: 3a7e 9ebd b901 b33e 20c7 1d3e 5c55 7bbe
00000220: 8078 cf3a c817 a8be de6b 18bf 3ea0 8f3b
00000230: 2194 0fbe d651 91bd 255c 9dbe d531 9d3c
00000240: 29d1 af3e b314 e73d d737 46bc 7fac 153d
00000250: 6639 8ebe 9cce 6cbd d14c de3c dd65 b9bd
00000260: b27c b33c 761b 7dbc 8fea 84be 3e2e 1e3e
00000270: d275 19bf c550 813e 0cb0 3fbe eaba 583b
00000280: 1071 86bd c626 8b3e 17c9 7fbe 7d0f e13d
00000290: 044a c2bb 7007 0ebe 17f7 643e 9004 623e
000002a0: 464d 1c3f b105 a33d d729 c23e 3c74 22bf
000002b0: d6c5 2fbc 9ebc 16be d978 11be 59a2 aa3d
000002c0: 54d3 953e 2ef1 023e ecae 3bbe 65ac 3b3e
000002d0: f125 733e d6b7 b73d 53ca 7abc dc8d 373d
000002e0: 523e c93a f8d5 c83e 55cf 6a3e 5d88 933e
000002f0: 7841 99bd 8304 503e 8ca6 05bc d926 d23e
00000300: db0f 1e3f d6d9 bb3e 3de3 84be 983c c8be
00000310: 3311 1abe 7fb9 f1bd e7fd 14be 2daf 39be
00000320: 9f89 3ebe 2395 353f 4572 4e3d 1c32 1dbf
00000330: 725d f839 80f6 89be 6b1e 3b3e 4182 cd3e
00000340: 0167 0dbe e5a5 d13e 8fda 08bf 3453 99be
00000350: 86f7 f7bd 2af0 0bbf c413 d4bd 7f2d 94be
00000360: 286f 483c f894 0dbf d41e 2bbe a6e9 7d3e
00000370: b6dc 5d3a 8ccc 6abe 94f6 e4bc f18b 833e
00000380: dfea b83e dcd4 953e ffe7 a1be 7b0f b33c
00000390: f405 273e 47f7 a1be 82ef 9ebd 85e9 4ebb
000003a0: 656e 85be d737 1cbe e1e0 39bf c954 ed3e
000003b0: 64a4 c8bc 1885 9c3e 8a61 e3be fd3d ca3e
000003c0: ef32 b8bd e9cf 57be f574 b4be bc3d 09bf
000003d0: ffaa 2e3f 759b a9be 8ef4 35be 890b 333f
000003e0: 38ce 78be 8001 a6be aa1c b23d 1f49 b53e
000003f0: cd90 503d e479 1dbd 49c0 4f3e d18a 493c
0.15370649 -0.20598431 0.05897868 -0.27236694 0.03282558 -0.043437257 0.20643581 0.384667
-0.10765477 -0.11989212 0.06843597 -0.008697521 -0.15325016 0.12606211 -0.46570933 -0.24770838
-0.18824932 -0.23821718 -0.44737995 -0.064732075 -0.05626112 0.07057685 0.2868569 0.11227645
-0.1106117 -0.23760296 -0.4401129 -0.12741779 -0.050556023 -0.5465704 0.2209559 0.1496735
0.19534273 0.21079837 0.1462134 0.23997249 -0.17587292 0.5013523 -0.16892512 0.026320888
-0.036846586 0.08049703 -0.07961636 -0.07956789 -0.16681463 0.18826891 0.1470921 -0.24376507
-0.15223052 0.15367502 -0.2616913 -0.4880739 -0.41476434 -0.09706288 -0.076654576 0.16342169
0.31425396 -0.33409393 -0.077729195 -0.46378738 0.36656037 -0.41826853 -0.3029076 -0.2240282
-0.19715388 -0.07057054 -0.05151806 -0.14166462 -0.46622247 0.5705812 -0.041266568 0.57010716
-0.40941972 -0.040484674 0.08376235 0.2813326 0.37847012 -0.037199758 -0.2687606 0.10139169
-0.12151889 0.32230774 -0.042306073 -0.04654045 -0.5023477 0.14062373 -0.4467634 -0.1821135
-0.15927881 0.11205519 0.14258537 0.102081135 -0.02492385 -0.57239926 -0.32787043 -0.27543363
-0.31143636 -0.07687993 -0.34338605 -0.42823058 0.07115575 -0.19295648 0.4641329 0.15647306
0.6065017 -0.48433864 -0.0890957 0.07364005 0.17599022 -0.025670175 0.15182407 0.15603039
0.08897544 0.012124203 0.26274833 0.22238256 0.055251468 0.0034394523 -0.20005265 0.1680241
0.3860079 -0.046017054 0.3672507 -0.49307525 -0.041840263 -0.21485992 0.33801752 -0.03703346
-0.19830282 -0.6658638 -0.0035031787 -0.6058248 -0.077389196 0.34962252 0.15407991 -0.24544281
0.0015828758 -0.32830644 -0.5953959 0.004383116 -0.1402135 -0.07095687 -0.30734363 0.0191888
0.34339264 0.11283245 -0.012098274 0.03654146 -0.27778167 -0.057814226 0.027136238 -0.09052632
0.021910045 -0.015448442 -0.25960204 0.15447327 -0.59945405 0.25256935 -0.187195 0.0033070394
-0.06564534 0.2717802 -0.24979053 0.10989282 -0.0059292335 -0.13870025 0.22359882 0.22072053
0.6105541 0.0796007 0.37922546 -0.6345861 -0.01072832 -0.14720389 -0.14206256 0.083317466
0.29262793 0.12787315 -0.18328446 0.18327482 0.23744942 0.08970611 -0.015307027 0.044813022
0.0015353656 0.39225745 0.22930653 0.28814974 -0.0748319 0.20314221 -0.008157384 0.41045263
0.61742944 0.36689633 -0.2595462 -0.3910873 -0.15045623 -0.11802959 -0.14549981 -0.1813323
-0.18607186 0.7093069 0.050401945 -0.61404586 0.00047371868 -0.26945877 0.18273322 0.40138438
-0.13808824 0.4094688 -0.53458494 -0.2994629 -0.12107758 -0.54663336 -0.103553325 -0.2894096
0.012233533 -0.55305433 -0.16710979 0.24796161 0.00084633694 -0.22929591 -0.027949609 0.25692704
0.36116692 0.2926396 -0.3162231 0.021857968 0.16310865 -0.3163397 -0.07760526 -0.0031572294
-0.26060787 -0.15255676 -0.7260876 0.46353748 -0.02449245 0.30570292 -0.44410354 0.39500418
-0.0899409 -0.21075405 -0.3524548 -0.53609824 0.6822967 -0.33126417 -0.17769071 0.69939476
-0.24297416 -0.3242302 0.086968735 0.3540735 0.050919343 -0.038446322 0.20288195 0.012301163

single_token_backbone.layers.0.0.bias f4 [64]
00000000: 1667 36bf a2f1 74bf 6c15 bdbf 13a5 88bd
00000010: 8f94 743e 2a85 83bf 5126 323e f44e fabd
00000020: 9db2 debe 868d 54bf 6042 b7be fc0d babf
00000030: 25f3 203e 98d2 b8be d510 18bf 7410 ca3d
00000040: 2bdc 663e 3139 56bf c599 273e b8d8 78bf
00000050: 8f1c 4dbf be31 2abf 42c4 a3bf 1c04 61bf
00000060: 0106 c4bd 0214 3cbf 44e2 023d 0fc2 a7be
00000070: c3ac 5cbf 2cbc cbbe 9250 5dbf d1a4 2abe
00000080: 219a 25bf b4d8 14bf 1d63 01bf b73e b6be
00000090: ed90 6cbd 62b5 8bbe 8096 69be 9f2b 72bf
000000a0: ab1d f2be 1e03 21bf 091a 9abe 287b 8dbf
000000b0: f4a7 a5bf 676f 05bf 1c4a bfbe 3691 01be
000000c0: b818 b33d 51d3 abbe 0121 1bbe aadc f9be
000000d0: b375 3ebc de53 033e 60e9 99bf 8336 a3be
000000e0: 937b f7bd 40e7 143d 9290 80be d6b4 d0bd
000000f0: 57f8 11bf ae22 8c3e 4005 6abe f0b3 aebd
-0.71251047 -0.956812 -1.4772162 -0.066721104 0.23884796 -1.0275013 0.17397429 -0.1222209
-0.43495646 -0.8302845 -0.35792828 -1.4535518 0.15717752 -0.3609817 -0.59400684 0.098664194
0.22544925 -0.8368102 0.16367252 -0.97205687 -0.801217 -0.6648215 -1.2794268 -0.87896895
-0.09571458 -0.7346803 0.031954065 -0.32765242 -0.86201113 -0.39792 -0.86451066 -0.16664435
-0.6468831 -0.5814316 -0.5054186 -0.35594723 -0.0577554 -0.27286822 -0.22811317 -0.9459781
-0.4728826 -0.6289538 -0.30097988 -1.1053209 -1.294188 -0.5212311 -0.37361228 -0.1265305
0.08744949 -0.3355966 -0.15149309 -0.48801166 -0.011624741 0.12824962 -1.2024345 -0.31877527
-0.12084117 0.03635335 -0.25110298 -0.10190742 -0.5701956 0.27370209 -0.22853565 -0.08530414

single_token_backbone.layers.1.0.weight f4 [64, 64, 3]
00000000: 2c0a 423f 6c35 8dbe efd4 943e f5b7 783d
00000010: faeb 95bd 4313 b4be 8d7d 9a3d d5ef 82bd
00000020: 9fb9 61be 374a 183e ebcf 47be 59cc 00be
00000030: bc82 50bf 4db6 07bf 35f7 013e 86ad 02bf
00000040: c8de ddbe 9b29 82be 91aa 633e bcc1 78bd
00000050: 85b3 90be db7d 05bf 3c21 4ebe a272 3abe
00000060: 1990 edbb fb73 bebe 6b9b 3abe 775a a13b
00000070: c3b2 2fbe 687c 02bf b320 39be eedb 95be
00000080: 92db 3f3d 71d8 ac3c c9d6 9ebc 7712 863e
00000090: 87a0 9dbe 9ac4 6abe e38c 32be ba2a 9cbd
000000a0: f113 94be 125c 62be 5b1c b33d 21f7 85bd
000000b0: 9437 dbbe c849 8c3e adf5 783e 91e2 363e
000000c0: ea72 b9bd b700 90be 6c07 b53d c7a2 fdbe
000000d0: a218 adbe 3e30 b0be 3f45 d8be dc8f aabe
000000e0: 82a3 edbe 7838 45be 1744 f6bd 0e23 64be
000000f0: f86e 9b3e 5d4e 53be 5c38 26be 65aa 313e
00000100: e713 9bbd c4b3 2cbf 18b4 abbe 699b 0bbe
00000110: b8e6 7fbe 1c09 0dbe 62ac 99be 31c9 973e
00000120: f779 98be 1a06 3fbd 005c cebe 476f 24be
00000130: 2274 cdbd 1364 b43e 4ee2 5bbc fe9a 03bf
00000140: 3ca0 d1bd ffb9 cc3d 2f4a 543a b702 40be
00000150: 3fcd 5abe 417b 0fbe 34db b4be 2181 e1be
00000160: b702 8bbe ee6e 2fbf c061 95be 9ed7 c1bd
00000170: e6c0 58be d17f d9be b1b1 13bf 72ca b5be
00000180: 4c3f acbe 55ec d2bd 5727 33be 50c1 fabd
00000190: e02f a4bd 628d a4be a9e5 0ebe e04e 32bb
000001a0: c06f 343e e104 b1be a2ba 19bf 3c13 a6be
000001b0: 31d6 063d 562c 523e cb2d 843e ab91 58be
000001c0: b5dc 7dbd 536c 06bf 4e2f c8bd cac8 0cbd
000001d0: 6aa6 f43c 5149 cebe f9b9 f8be d934 353c
000001e0: a906 eb3e dd43 0b3b 6728 1e3e db96 9cbe
000001f0: 7646 d9be 7feb cdbe acb4 023e 85a1 533e
00000200: c1ed 49be 6e25 e03c 21ec 8bbe be2a 163d
00000210: 8f14 b2be d6e5 833d 298b bc3d 21c9 a0be
00000220: c601 a03c ee38 01bf ab43 3fbe a436 273e
00000230: 31ec 803d 1a67 bdbc 394a 08be 83dd ba3e
00000240: 3dde f3bd ff77 03bd c57e ccbc aebb 363b
00000250: e267 11be c6db a3bd a582 913e 4464 e53e
00000260: 6564 dc3d 8697 143e 5d4e 9a3e 3e15 df3d
00000270: 7927 de3d 180a 10be ff65 8abe b599 4fbe
00000280: b48e cbbd 273d 9fbc f324 39be 100f fe3d
00000290: a95c 4ebf aff8 78be 442d edbe 6ea0 aebe
000002a0: 57da 0d3f fa71 3e3e 87f4 0f3e 3241 1dbe
000002b0: 06c6 c4be a816 a5be 95cc 46be 68ca cd3d
000002c0: b69a 393d 120e 563e 4151 6bba d6b9 283e
000002d0: e61a 093f 00dd 8c3e 004e 2d3e bb6c 4a3e
000002e0: 8041 42be 24a4 563e 8468 ab3c 088b 103e
000002f0: 68dc 05bf 2695 743e 6a7c 943d b0b2 7a3e
00000300: b565 873e aa33 0cbe 1d27 0ebf e014 96be
00000310: a7ba 26bf 76ef a3be ddb6 2bbd 1628 31be
00000320: 61fc 953d 2748 d8be 8946 babe 7cb2 98be
00000330: c6c1 2f3e a4a9 80be 9bb4 60bd d2e0 30be
00000340: 0e05 97bd f86f 843e 43a7 a8be ef83 72be
00000350: 4c3c b9be 6f90 50be 5711 c43d 2a51 bd3e
00000360: ad28 4abe da05 11bf 8a8d 20bc 6e2c 683c
00000370: ef2c cebd f4b3 b13d 52a4 993d 2cc5 073e
00000380: f544 61be 4820 143e ee5e 403e e1cc 98be
00000390: c157 31bf 4df9 07bf b6e2 8dbf bc93 193f
000003a0: 4a51 91be a6f9 0abc f65d 6ebe 4839 b4be
000003b0: 93a2 a8be ef4c d1be 4d20 83bc eb02 c23d
000003c0: 7b16 353f 356c 00bf 54bc 19bf fe28 99bb
000003d0: f7eb d5be bf05 77be 0245 4c3e 8f2e aa3e
000003e0: e914 bebb 3bc2 ad3e 3c0f 283e 8931 5c3e
000003f0: 4105 fcbd f4f0 8abf d2a5 5cbe e203 39bf
0.7579677 -0.2757982 0.29068705 0.06072231 -0.073203996 -0.35170946 0.07543478 -0.063934006
-0.22043465 0.1487206 -0.19512908 -0.12577952 -0.81449485 -0.53012544 0.12691958 -0.51046026
-0.4333403 -0.25422367 0.22233035 -0.060731634 -0.28261963 -0.52145165 -0.20129865 -0.18207791
-0.007249844 -0.3719786 -0.1822335 0.0049241143 -0.17158036 -0.5097108 -0.1807888 -0.29269356
0.046840258 0.021099301 -0.019389527 0.26185963 -0.30786535 -0.2292656 -0.17436557 -0.07625337
-0.28921464 -0.22105435 0.08745643 -0.06541277 -0.4281584 0.2740004 0.24312468 0.17859866
-0.09055121 -0.28125545 0.08839306 -0.49538252 -0.33807856 -0.34411806 -0.4224033 -0.3331288
-0.4641381 -0.19259822 -0.12024706 -0.22278997 0.303581 -0.20635362 -0.16232437 0.17350157
-0.075721554 -0.674618 -0.33535838 -0.13633503 -0.24990356 -0.13773006 -0.3001433 0.29645684
-0.29780552 -0.04663668 -0.40304565 -0.16058074 -0.10031916 0.352326 -0.013420654 -0.51408374
-0.102356404 0.099964134 0.00080982124 -0.18751036 -0.21367358 -0.14011861 -0.3532349 -0.4404383
-0.2715051 -0.6852864 -0.2917614 -0.09464954 -0.21167335 -0.4248033 -0.5769301 -0.35506016
-0.33642042 -0.10298983 -0.17495476 -0.12243903 -0.08016944 -0.32139117 -0.13954796 -0.0027207658
0.17620754 -0.34574035 -0.60050404 -0.3243655 0.032919113 0.20524725 0.25816187 -0.21149318
-0.06197806 -0.5250904 -0.09774648 -0.034371175 0.029864509 -0.4029031 -0.48579386 0.011059963
0.4590352 0.0021250166 0.154451 -0.30583844 -0.4243657 -0.40218732 0.12764233 0.20667084
-0.19719602 0.027361598 -0.2732859 0.036661856 -0.3478131 0.06440322 0.0920623 -0.3140345
0.019532096 -0.5047749 -0.18678157 0.16329437 0.0629505 -0.023120452 -0.13309564 0.36497125
-0.11907623 -0.03209686 -0.024962792 0.0027882862 -0.14199784 -0.08000903 0.28419986 0.4480306
0.10761336 0.14510927 0.3013791 0.108927235 0.108473726 -0.1406635 -0.27030942 -0.20273478
-0.09939328 -0.01943834 -0.18080501 0.12405217 -0.8061014 -0.24313615 -0.46323597 -0.34106773
0.55411285 0.18598166 0.14058124 -0.15356901 -0.3843233 -0.32243848 -0.1941398 0.100483716
0.04531356 0.20903805 -0.00089766463 0.16477141 0.5355667 0.2751236 0.16924286 0.1976804
-0.18970299 0.20961052 0.02092386 0.14115536 -0.5228944 0.2388502 0.072502926 0.24482226
0.26444784 -0.13691583 -0.5552843 -0.293128 -0.6512856 -0.32018632 -0.04192244 -0.17300448
0.07323528 -0.42242548 -0.3638194 -0.29823673 0.17163762 -0.25129426 -0.05485974 -0.17273262
-0.07374011 0.25866675 -0.3294011 -0.23683141 -0.36178815 -0.20367597 0.0957362 0.36975986
-0.19742079 -0.56649554 -0.009799371 0.014170749 -0.10067164 0.086769015 0.07502045 0.13258809
-0.21998961 0.1446544 0.18786213 -0.2984381 -0.69274527 -0.5311478 -1.1084812 0.5999105
-0.2838233 -0.008482372 -0.23278031 -0.35199952 -0.32936534 -0.40879008 -0.016006613 0.09473213
0.7073743 -0.5016511 -0.6005299 -0.004674076 -0.4178159 -0.24123286 0.199482 0.33238646
-0.0058008325 0.3393725 0.16412061 0.21503271 -0.123056896 -1.0854783 -0.2154763 -0.7227155

single_token_backbone.layers.1.0.bias f4 [64]
00000000: 9d05 27be b88b 22bf 2b9a 98bf 9231 22bf
00000010: 1b90 4dbf 676e 36bf 8995 86be 1878 9bbe
00000020: b240 3cbf 9c8c 28bf 4aa4 60bf caf3 0ebe
00000030: f456 adbe 8081 14bf 8c44 73be 5500 fd3d
00000040: 27c9 f4bd d2c4 7abe 092d ddbd e1fa 16bf
00000050: 8ac0 64bf ddb1 33bf 905b 75bf 12f2 c1be
00000060: 999b 143c c518 ccbd 2393 81be 41ae 0ebf
00000070: e2b9 a7bf ed29 80be f9c5 3cbf 5edf d4be
00000080: 9a59 aabd 32f6 0dbf 8825 0dbf 0e68 78be
00000090: fd72 093e dc4b dcbe 468a 22bf 3066 f2be
000000a0: 3935 aabd 715f 15bf d219 81be 24ee e8be
000000b0: bd1f 20be 72db 80bf 3af0 bfbe 9d05 1dbe
000000c0: 1d8d 7e3e 92d3 37bf a9ce 6dbe bec1 3abf
000000d0: c88c 1abe 4095 3bbf 3ecd c2be 98c8 67be
000000e0: d3fc 41bf 696c 24bf 4e4b b6bf c087 e3be
000000f0: b754 19bf dc96 dbbe f6f3 2bbf bd28 86bf
-0.16310735 -0.63494444 -1.1922048 -0.6335689 -0.8029801 -0.7126221 -0.2628596 -0.30365062
-0.7353622 -0.6583955 -0.87750685 -0.13960186 -0.33855402 -0.580101 -0.23756617 0.12353579
-0.11952429 -0.24489143 -0.107996054 -0.5897656 -0.8935629 -0.7019327 -0.9584284 -0.37879997
0.0090703005 -0.09965662 -0.2530757 -0.5573464 -1.3103602 -0.25031987 -0.7373958 -0.41576666
-0.083178714 -0.5545379 -0.55135393 -0.24258444 0.13422771 -0.43026626 -0.6349224 -0.47343588
-0.08310933 -0.5834876 -0.25215012 -0.45494187 -0.15637107 -1.0066969 -0.37487966 -0.15334173
0.24858518 -0.71807206 -0.23223366 -0.7295188 -0.15092766 -0.7327461 -0.38047212 -0.22635114
-0.75776404 -0.6422792 -1.4241731 -0.44439507 -0.5989489 -0.42888534 -0.6716913 -1.0481182

single_token_backbone.layers.2.0.weight f4 [64, 64, 3]
00000000: 0d4f fdbd 8d24 d33d fd35 9c3e 04d1 8cbe
00000010: 13d5 49be 73b4 1ebe 2c0a c8be 601e fabd
00000020: 022b 97be a0bd c9be 40f0 6ebe 303f 80be
00000030: 15fd adbe 8f5b a7be aed2 63bf a860 41bf
00000040: 769a 5bbd 0026 71be b99d 88be 6cf0 ed3c
00000050: 2612 68be 3444 373e b91f 80be 6361 1d3d
00000060: 7493 74bd 762b 2abd ceb0 433e e039 83be
00000070: f037 8b3d 33ce a5be 919f ab3d 536b 9bbe
00000080: c2da ddbd f2ed 0a3e d0ad bdbd 1256 7ebe
00000090: af5c f9be 1383 573d 9ed2 aabe 4bd9 eebd
000000a0: 44f5 f3be d8ca c13e e75f c6be 1dc3 f6be
000000b0: 3119 f8be 7092 f7bc bcad 5fbd 2be9 c0bd
000000c0: 44ca 22be 3fcc 3a3e 2923 07be f18c 9839
000000d0: ac47 16bf 2089 18bf daf4 8cbe 11bf ebbe
000000e0: da18 aa3d 0ca2 4b3e 7b75 b6bd 4ada 8dbe
000000f0: 8b38 f5be d627 de3d 32de 18bd a33c 09bf
00000100: 927b 10bf decd bdbe 4f01 adbe d63e 86be
00000110: 76e2 053d 186c efbe be2f 4cbe 341c 293e
00000120: ccf4 e4be 5ebe a7be 6f50 03bf 1592 ba3e
00000130: 8bab b3bd 9643 973d 9a87 4ebd dadf b43d
00000140: f7f6 2bbf 1e3c 223d 6629 8d3e 4624 533e
00000150: b6be 473e 0a6a 8c3e eda7 9abe cbc2 a43b
00000160: 25d1 58bd f353 51be b345 03bf cda0 56bd
00000170: 13ef ff3d a4fd 2a3d d857 cabe 78bd 81be
00000180: 8c5e dbbb 48c0 25be bc17 b4be 2351 c0be
00000190: 4435 c5be eb01 9cbe 3ebe abbd 55d8 0fbe
000001a0: 9e86 b83e 8e36 4abe 6fe1 bebe 691a 8b3e
000001b0: ec30 15bd 4b15 1dbe 6e95 87b9 3095 a43d
000001c0: f1b4 833d af74 08be f3fd abbb b681 91bb
000001d0: 5a50 6b3c dcc3 af3e 98de e93e 3834 803d
000001e0: a9c7 1f3d 21a6 13be 8742 a23e 993a c6be
000001f0: 1ac1 f4be acdd fabe 2ba2 a4be 7368 c93d
00000200: ed74 243c b51c 0c3e 1d12 dd3d a4f6 17bf
00000210: 25c5 6d3e 1180 8abc 101a c33d 38b8 5cbe
00000220: e112 52be fd5a 39bf 406a a6be ad64 fbbe
00000230: 4e66 5bbf 4d6a 013d 73d8 9ebe 39de b73d
00000240: fa77 05bf 27cb 10be b1c4 0b3e 5613 83bd
00000250: 3120 073e 5918 76be 93c5 ce3b b8c2 2e3e
00000260: f592 f23d 7482 e53d 84b8 103e 7dd7 7dbe
00000270: 28c7 65be 4686 19bf 249a 23be 8185 8d3b
00000280: 852d 653d 58eb 933d 7375 9dbd 050b 8dbe
00000290: 4740 25be e3ca 2cbe c37c 113c c924 9fbe
000002a0: 3058 debd b31e dc3d cd77 933e 5055 bdbe
000002b0: fbf7 42be 1a58 1fbe 2cde 07bf 717e a83e
000002c0: c2fb 503e 05c1 593e a57d 153f 2a6e 5c3e
000002d0: 05bd 013e 4d00 0dbf 4e39 093e 2fa2 0cbd
000002e0: 833c ccbd 2302 323e 2ae4 cf3c e484 34be
000002f0: fa05 28be 98e3 b0bd 6835 a0bd a9e2 813e
00000300: 4bff d33e 1fe4 3a3e 4c2e 61be 0422 7dbe
00000310: 7ab6 28bf 4bf7 53be d5b7 10bc 9a40 05bf
00000320: 6735 44bd 49cd 77be 1d18 f6be 9cba d9be
00000330: ea3c 353e 7507 adbf 5d28 b4be 7d2c 1fbe
00000340: 86ba b43d f867 d0bd 2fcf 2abf 25f7 30bf
00000350: c444 d73e a1ed a3bd 7caa 96be 4850 55be
00000360: f9f3 123e b0d2 913a d094 7cbd 71bd f1bd
00000370: b4a0 863d e6a8 52bf 74b2 683e 6b4b a5be
00000380: 6b95 f03e f30a d43d 984e 203e 4492 59be
00000390: 617e 85bf 1641 853e 594b 62be 386a 163f
000003a0: 85d6 183e 068e bebc 0ee6 7fbe 79a1 513b
000003b0: baad b5be 772f 18bf b895 50bf 0111 803e
000003c0: cf01 82bf 0901 a13d 2105 d7be 9579 cf3c
000003d0: 2af2 1f3e 6c2c 07bd e7b7 54be 33fc 00bd
000003e0: 6c9e dabe 563a 963c 7dcb 60be 52d5 05be
000003f0: 97d5 a23c 1419 11bf e00e 473d be08 893c
-0.12368593 0.10309706 0.3050994 -0.27503216 -0.19710188 -0.15498523 -0.3907026 -0.12212825
-0.29525 -0.39402485 -0.23333836 -0.25048208 -0.3398215 -0.3268704 -0.88993347 -0.7553811
-0.053614102 -0.23549652 -0.26682833 0.029045306 -0.22663173 0.17897111 -0.25024202 0.038422953
-0.059710935 -0.041545354 0.19110414 -0.25630093 0.067977786 -0.3238388 0.08380044 -0.3035532
-0.1083274 0.13567331 -0.09261668 -0.2483752 -0.48703524 0.052615236 -0.33363813 -0.11662539
-0.4764806 0.3785007 -0.38745043 -0.48195735 -0.4845672 -0.030221194 -0.054609045 -0.09419473
-0.1589747 0.18241976 -0.13197006 0.0002909671 -0.5870311 -0.59584236 -0.27530557 -0.4604421
0.08305521 0.19886035 -0.08909126 -0.27705604 -0.478947 0.10847442 -0.037321277 -0.5360815
-0.56438553 -0.37071127 -0.3379006 -0.26219815 0.032686673 -0.46762156 -0.19940087 0.16514665
-0.44718015 -0.32762426 -0.51294607 0.36439577 -0.087729536 0.07385938 -0.05042229 0.08831759
-0.67173713 0.039608113 0.27570647 0.20619306 0.19506344 0.2742465 -0.30206242 0.005028104
-0.05293383 -0.2044218 -0.5127823 -0.052399445 0.12496772 0.041745797 -0.39520144 -0.25339866
-0.0066946205 -0.1618663 -0.35174358 -0.37561902 -0.385172 -0.30470213 -0.08385895 -0.14047368
0.36040205 -0.19747373 -0.37281367 0.27168587 -0.03642361 -0.15340154 -0.0002586054 0.08036268
0.06430996 -0.13325761 -0.005248779 -0.0044405116 0.014362419 0.34329116 0.45677638 0.0625996
0.03900877 -0.14418842 0.3169138 -0.3871658 -0.47803575 -0.48997247 -0.32154974 0.09834375
0.010037643 0.13682826 0.107944705 -0.5936072 0.23219736 -0.01690677 0.095264554 -0.21554649
-0.20515014 -0.7240446 -0.32502937 -0.49100247 -0.8570298 0.031595517 -0.31024513 0.089779325
-0.52136195 -0.14139996 0.1364925 -0.064001724 0.13195874 -0.24032725 0.006310174 0.17066467
0.11844436 0.112065226 0.14132887 -0.24789234 -0.22439253 -0.5997051 -0.15976769 0.0043188934
0.055951614 0.07222623 -0.07688417 -0.2754747 -0.16137801 -0.1687427 0.008879843 -0.31082752
-0.10856664 0.10748043 0.28802338 -0.3697915 -0.1903991 -0.15560952 -0.5307338 0.32908967
0.20408538 0.21265037 0.58394843 0.21526399 0.12669761 -0.55078584 0.13400766 -0.034334358
-0.09972479 0.17383628 0.025377352 -0.17628819 -0.1640853 -0.0863716 -0.078226864 0.2536824
0.4140571 0.18251084 -0.21990317 -0.24720007 -0.6590344 -0.20699804 -0.0088328915 -0.520517
-0.04790249 -0.24199404 -0.48065272 -0.42525184 0.17699018 -1.3517901 -0.35187045 -0.15544315
0.08824639 -0.101760805 -0.6672239 -0.6912711 0.42044652 -0.080043085 -0.29426944 -0.20831406
0.1435088 0.0011125412 -0.061665356 -0.11803711 0.065736204 -0.8228897 0.22724324 -0.32284102
0.46988997 0.10353651 0.15654981 -0.21247202 -1.0429193 0.2602622 -0.22099055 0.58755827
0.14925583 -0.023261081 -0.24990103 0.0031987114 -0.35484105 -0.59447426 -0.8147845 0.25012973
-1.0156802 0.078615256 -0.419961 0.02532653 0.15619722 -0.03300135 -0.20773278 -0.031490516
-0.4269899 0.018338364 -0.21952625 -0.13069656 0.019877238 -0.5667889 0.04859817 0.016727801

single_token_backbone.layers.2.0.bias f4 [64]
00000000: 4132 a8bd ddab 07bf b06d 37bf 9fd7 6bbe
00000010: 9b2f 30be 49d7 21bf e19c 21bf bdab eebe
00000020: 46ca 40bf 50c5 2a3d 4064 81bf c826 27bf
00000030: 5dbd 44bf 1a07 5ebf f7e8 b9be 05a8 0fbf
00000040: 1103 03bf c00a 39bf fb0b db3e d2be 6bbf
00000050: 0708 c8bd 7a86 21be 7ccd 8dbe c388 32bf
00000060: 3691 1ebf e331 e3be 6005 1dbf c062 20bf
00000070: db12 20bf 8437 01be 676d 53bf 2b89 00bf
00000080: 0424 5dbf 3e12 c0be 79e5 0cbf 9954 16bf
00000090: 7880 8ebf 7475 34bf a5ed 48bf be07 04bf
000000a0: 2cba a43e cba8 43bf d083 5bbf bcc6 65bf
000000b0: ada9 97be 5705 7abf a0ec 0fbf 5567 2d3e
000000c0: 6d5b d63e f723 7dbf 98c3 aebe b5a3 11bf
000000d0: 24a4 82bf afa7 d0be b457 06bf 882a 21be
000000e0: 707a e8be 2d75 b8be f391 d7be 93d7 0b3f
000000f0: a389 80be b1cc 1bbe 1ade 993e a4c4 cfbe
-0.0821271 -0.5299662 -0.71651745 -0.23031472 -0.1720566 -0.63219124 -0.63130003 -0.466154
-0.75308645 0.041692078 -1.0108719 -0.6529355 -0.76851445 -0.86729586 -0.3631055 -0.5611575
-0.51176554 -0.7228203 0.42782578 -0.92088044 -0.09767156 -0.15773955 -0.27695835 -0.6973993
-0.61940324 -0.44373998 -0.61336327 -0.6265068 -0.6252877 -0.12618834 -0.8258881 -0.502093
-0.8638308 -0.37513918 -0.5503765 -0.58722836 -1.1132956 -0.7049172 -0.78487617 -0.51574314
0.32173288 -0.7642943 -0.85748005 -0.8975637 -0.2962164 -0.976644 -0.56220436 0.1693395
0.41866627 -0.98883003 -0.341336 -0.5689042 -1.0206342 -0.40752932 -0.52477574 -0.1573888
-0.45405912 -0.36026898 -0.42103538 0.54625815 -0.25105008 -0.15214802 0.30052263 -0.40579712

context_backbone.layers.0.0.weight f4 [64, 64, 3]
00000000: a995 02be ac4f 09bf e177 f43d e2fb 803b
00000010: 8be2 b43d 9410 e33d e258 a33e ac18 553e
00000020: 6383 ec3d 018c 79bf 0c87 aa3d b617 9cbe
00000030: ce15 d6bc a951 7ebd 1b75 1b3e 3702 bcbe
00000040: a3cf 03bd ea2d a83d df0b 513e 95ad b63d
00000050: ad4b 223e 13fc c03e 1754 f1be f0cd 71be
00000060: b996 3d3d b52b 19be 452a 183e 9278 3dbf
00000070: 0924 8a3d bf82 c3bc e46a 59bc dfa0 6d3d
00000080: 60c8 8cba 017e af3e a2ca 803e d62a 5c3d
00000090: 8e6e 6bbf fbeb 77be 6e49 a0bd 8f26 973e
000000a0: 3b8b 403e 89ad 213e 135e 6f3e 526a f7bc
000000b0: 0881 7c3e 5c01 17be dac3 fdbd f3fc cdbd
000000c0: d5ff 0bbf 8a64 0c3d cacd 783e db9f 35bf
000000d0: 42d6 97bc cd96 9bbc 4793 fd3d 9486 9abd
000000e0: 4c2a 10bd 9d7c 35be 1242 ecbb 7aa6 e63c
000000f0: 7aae 8abe d761 4b3d bcea 8e3d 5c0b 2e3e
00000100: 034d 8cbb 3318 63bd 06c2 30bf 071b 733e
00000110: 9924 adbe 6109 15bf 9945 fb3d d14b bd3d
00000120: e318 b5be a91b 6ebd 25a0 993e 04e7 533e
00000130: 1128 713e 7a1e a93c 9b2e bf3d d8b0 a7bd
00000140: c438 00bf a424 dd3e 8ff6 60be 42b4 3dbc
00000150: b018 2abd cabb 4f3d 3eb5 653b 26cf 7ebe
00000160: 1a06 583d 4944 3a3e 682e e03d a980 f93c
00000170: 2396 c7be 1e0e 2bbf efd1 27be 5b88 d33e
00000180: 90bd aa3d cb93 70bc 29ff 98bd e4d4 c33e
00000190: c5f7 ea3d 9c14 d8bd 38f1 11bf cf5b bb3d
000001a0: 3013 7c3d 0aac 0bbf 9f1f d33d 25c9 e0bd
000001b0: 2755 0a3e aff2 73be b774 aebd 3cd7 6a3e
000001c0: 07df 1ebe 0487 24be 0387 573e f6e4 efbd
000001d0: 4f72 07be 605b 13bf 737f e4bc ba2b 7fbe
000001e0: 4da7 ac3e 8450 3bbd cf3a 503e a53f 82bd
000001f0: 7046 a3bd 8415 7bbe e95e 273d 1774 29be
00000200: a38a 5f3d aa1a a4be e589 003e 7815 cfbe
00000210: 2320 35bf 6593 443c 600b 58be 5945 a2be
00000220: fb2f d03d 0641 06be 304a 0dbe fb9a 09bc
00000230: b7f1 1d3e 5d1e 423e cdbd 073e 11d0 b9bc
00000240: 0d09 d43e afc2 38bd bdfe a63d ddff 18bf
00000250: ea5f 53be 3b4b a8be 42ba ef3d 0991 57be
00000260: 6b9a e93d 8d90 9bbe 51a7 87bd 99b8 953d
00000270: f64e 013e 5d19 3cbd c996 053d 3f2f 5a3e
00000280: f5ff a5bd 5ae9 213e dc32 833d 179b ae3c
00000290: 7a65 46be 4d31 813e f0d0 2cbe 83c9 f7bc
000002a0: 9507 39be 1530 34be 07d8 15bf cc5d a43e
000002b0: 23a5 243e 07a2 29be 1810 f7be 47f6 3c3b
000002c0: c435 01bf 104e a13e 32f7 fd3d 14a5 b53d
000002d0: 407e d6bc db2a a73d 9ce9 04bf 0642 ce3d
000002e0: b8cd 94be f540 cd3d 7981 6f3e 96a3 75bc
000002f0: ee71 68bd 0998 97be 3e54 ec3d e195 1f3e
00000300: dcf9 2c3e b101 233c 44f4 56bc 4b4e 9d3e
00000310: e5ce 49be bf4a e33e b827 e4bb fe9a 913e
00000320: 7639 4cbd bfb7 c93d cad4 56be 8b34 ed3e
00000330: fe91 e33e 4fdc 3d3e 2233 8cbd fa5f 03bf
00000340: ee44 99be 1497 bd3d 40ed 17be 2972 6abe
00000350: 98fd c4be ee12 7b3e fb41 9cbe 098b 103e
00000360: 3ccb ca3e e183 f13d 3a8a 653e 4028 95bb
00000370: e72f 75be beec 18be cc4a 4f3e f1f1 9d3e
00000380: bc4f aa3e 6c9c f8bd a7f0 e83e f7bc b53c
00000390: a81e 45be c84d 6b3d d8c0 c0be 7e83 9f3e
000003a0: ecf5 1dbe 67ee 143e 0d07 51be 0641 5f3e
000003b0: c25d bbbe 2542 de3b cbf9 64be 72e7 3dbe
000003c0: 5076 413d 2388 f6bc 9ebe bbbd d1bf 293e
000003d0: 07b8 9fbe 9e5c b8be 31a4 08be c85d 06bf
000003e0: a089 f3be 7cb8 d7bd 8fb6 18bf 756c d1be
000003f0: 0735 593e cc45 83bf 58d0 9dbe 7b5e 3cbe
-0.12752403 -0.53637195 0.119369276 0.003936277 0.08832272 0.110871464 0.3190375 0.20810193
0.115484975 -0.97479254 0.083265394 -0.3048684 -0.026133444 -0.062089596 0.15181391 -0.3672044
-0.03218044 0.082118824 0.20414685 0.08919827 0.1584918 0.37692317 -0.47134468 -0.23613715
0.04628632 -0.14958079 0.14859875 -0.740121 0.067451544 -0.023866056 -0.013270114 0.058014747
-0.0010740869 0.3427582 0.25154597 0.05375179 -0.9196557 -0.24211113 -0.078265056 0.29521605
0.18803112 0.15788855 0.2337573 -0.030202065 0.24658597 -0.14746612 -0.12390871 -0.10058012
-0.54687244 0.03427557 0.24297252 -0.70947045 -0.018534783 -0.018992806 0.123816065 -0.075452
-0.035196587 -0.17723317 -0.0072100246 0.028155554 -0.2708624 0.049653854 0.06978366 0.16996521
-0.0042816414 -0.055443 -0.69046056 0.23740779 -0.33816984 -0.58217436 0.12269134 0.092429765
-0.3537055 -0.058131848 0.30004993 0.20693594 0.2355044 0.020644415 0.09335061 -0.08188027
-0.5008662 0.43192017 -0.21969055 -0.011578621 -0.04152745 0.0507162 0.0035050656 -0.24883708
0.052740194 0.18190111 0.10946351 0.030456858 -0.38981733 -0.66818416 -0.16388677 0.41314968
0.083369374 -0.014683674 -0.07470543 0.3824836 0.114730395 -0.10550806 -0.57008696 0.091483705
0.061541736 -0.54559386 0.103087656 -0.10975865 0.13509046 -0.23823045 -0.08518355 0.22933668
-0.15514766 -0.1606713 0.21047597 -0.11713593 -0.13227199 -0.575613 -0.027892804 -0.24919024
0.3372139 -0.045731083 0.20334934 -0.063597955 -0.07972419 -0.24519926 0.040861998 -0.16548191
0.054575574 -0.32051593 0.12552603 -0.40446067 -0.7075216 0.011998032 -0.21098089 -0.31693533
0.101654015 -0.13110742 -0.13797832 -0.008398767 0.15424238 0.18956895 0.13255997 -0.022682222
0.41413155 -0.04510754 0.08154056 -0.59765416 -0.20642057 -0.32869896 0.11705448 -0.2105142
0.11406406 -0.3038372 -0.0662371 0.073106 0.12627777 -0.045922626 0.032614503 0.21307085
-0.081054606 0.15811673 0.06406185 0.021314187 -0.19374648 0.25232926 -0.16876578 -0.030247455
-0.18069299 -0.17596467 -0.58532757 0.3210281 0.1607862 -0.16565715 -0.48254466 0.0028833316
-0.50472665 0.3150487 0.124006644 0.08869377 -0.026183248 0.08162471 -0.5191896 0.10071187
-0.290632 0.10022155 0.23389234 -0.014992615 -0.056749277 -0.2960818 0.115395054 0.15584518
0.16892189 0.009949134 -0.013119761 0.30723795 -0.1970783 0.44392964 -0.0069627427 0.28438562
-0.049859487 0.098495 -0.2097961 0.4632915 0.4444732 0.18541072 -0.0684569 -0.51318324
-0.29935402 0.092573315 -0.14836597 -0.22895111 -0.38474727 0.2451894 -0.3051909 0.14115538
0.3960818 0.11792732 0.2241601 -0.0045519173 -0.23944055 -0.1493406 0.20243376 0.3084865
0.33263958 -0.1213921 0.45496103 0.022184832 -0.19249976 0.057447225 -0.37647128 0.31155008
-0.15425843 0.14544068 -0.20412846 0.21802148 -0.3659497 0.0067827874 -0.22360913 -0.1854532
0.047231972 -0.030094212 -0.09167217 0.16577078 -0.3119509 -0.3600816 -0.13343884 -0.5248685
-0.47565937 -0.105332345 -0.5965356 -0.4090306 0.21211635 -1.0255675 -0.30823016 -0.18395416

context_backbone.layers.0.0.bias f4 [64]
00000000: ceea 033e 9251 7ebe b9de b5be f0c0 e3bc
00000010: c644 adbe 8670 0ebe 09e4 dcbe ff4b 17be
00000020: 7db5 05bd 7ca7 f6be afa4 8dbd 16b2 0abf
00000030: 8431 0ebe 7bb3 11bf a69f bebe ef1b ed3c
00000040: c704 5cbe b8eb 3dbe 38c8 143f 1065 02bf
00000050: 0f5e 05bb e7df c7be e072 d5be 1186 f5be
00000060: 8303 e6bd 69d0 8bbc 10c7 ccbe df7a dbbd
00000070: 8720 cdbe a806 9bbe 0398 86be 62b4 9fbe
00000080: 3d2e 483e fcc0 0abf 0832 e8bd c620 d1be
00000090: 9450 df3d 1e38 debe 5af3 a2be 32cf fdbd
000000a0: 8155 323e 0120 d2be c3c1 94be 0234 96bd
000000b0: f3fe 3cbe d683 17bf a620 d0bd 9d72 bf3d
000000c0: 0000 5c3e 2903 0839 7d56 32be 617b 31be
000000d0: dcab 9dbd 52ac a1be b7fc 8bbe e189 3ebe
000000e0: cefd b53d 806f c2be 3809 c2bd 4d08 3e3e
000000f0: 5e86 18be a61f 35be 13a1 5f3e 77ed 05be
0.1288254 -0.24835804 -0.35521486 -0.02780196 -0.33841532 -0.13910112 -0.43142727 -0.14775084
-0.032643784 -0.48174655 -0.069161765 -0.5417799 -0.13886076 -0.5691449 -0.37231177 0.028943984
-0.21486197 -0.18546951 0.5811801 -0.5093546 -0.0020350253 -0.3903801 -0.41689205 -0.47953847
-0.112311386 -0.017067151 -0.39995623 -0.10716795 -0.4006388 -0.30278516 -0.2628785 -0.3119231
0.19548889 -0.5420072 -0.11337668 -0.40845317 0.10904041 -0.4340219 -0.31826288 -0.12393035
0.1741543 -0.41040042 -0.29054078 -0.073341385 -0.1845663 -0.5918554 -0.10162477 0.093480326
0.21484375 0.00012971148 -0.17415805 -0.17332222 -0.07698795 -0.31576782 -0.27341244 -0.18607284
0.088863 -0.37975693 -0.094744146 0.18557854 -0.14895007 -0.17687854 0.21838789 -0.13078867

context_backbone.layers.1.0.weight f4 [64, 64, 3]
00000000: 6422 903d b784 83bf 9ee9 a93e 4247 6e3e
00000010: 00a2 84bd 564b ff3d f363 273e f0ba 383e
00000020: 4435 9b3d 39ad 8fbf be35 15bc 3198 06bf
00000030: 1d1b b7bd 78b3 7ebe 8d16 943d b4ee a8bf
00000040: 2693 c23d 67c4 963d d184 3f3d e03d 8c3d
00000050: f1c7 ca3d 81ed 4fbd 85ce 883d 265c b4bc
00000060: e77f ea3c dc8d 7fbd af6c 483c 84fd 7abf
00000070: 536b 903a 2d96 90bd e800 ddbc 2c62 67be
00000080: e2d8 363c 4ac7 b83e 7e8d 5b3d 67fa fdbd
00000090: f235 8cbf 8047 d1be a70c cebd f67e b8be
000000a0: 79ae 423d 54e9 863e 77c0 153e c934 15be
000000b0: 01cd e73d 6090 27be 66a0 c8bd 3b26 fc3b
000000c0: 749f 4cbf 1db4 babd 4ae8 7c3e e2dd 73bf
000000d0: c5ef 99be 44b2 683d c9eb 30bd 572d 0d3d
000000e0: dbd7 edbb dfda 7dbe 8f16 b4bd 87d0 073d
000000f0: 3b69 003f 5b3d 223e e3ea ee3c 6239 c53e
00000100: 4fce e9bd ad76 d23b 40ce edbe 7c7f a63d
00000110: b61c 2bbe 236e 4dbf 5c42 ca3d 7fc4 f93d
00000120: d99b 6dbf d503 01be 5b3a b93e cab9 a8bd
00000130: 20b9 a33c 6353 6b3e 40ac cfbd 9606 47be
00000140: a57e 2fbf 4386 663e 4b3b 023c 5e9d fc3d
00000150: c63b 97be 6d47 d8bc 046e 463e 5daf 33bf
00000160: c02c 1ebe ccda f43d 4383 0ebe e285 2a3b
00000170: 5d5f 6cbf 7cce 8dbf 3894 743d 18a1 b43e
00000180: b11f 0cbe f282 8b3c 05f6 8a3e bce7 313e
00000190: f8f5 8dbd c588 92bd 205a f3be e0cf 4c3e
000001a0: 96a9 263e 2a6a 5dbf 6536 183e e076 a4bd
000001b0: 70e7 e63e b0b7 8b3d 5dfe 113e 9701 113f
000001c0: b12e 3bbe 8e41 0c3d 55e0 763d aa1e 0fbe
000001d0: eb69 12be e3f9 353c 6de0 bd3e 32f2 86be
000001e0: 43b9 2e3e 3d15 903e 0f85 863e dc3f 0f3e
000001f0: 84c5 bcbe 3274 c03b 9aaf 83bd 6fd8 41bd
00000200: b435 dd3d 9609 b4be dcfc 21be 2613 bfbe
00000210: 0579 6dbf b87f a2be 0e5e 92be 105b 73bf
00000220: 6e53 023e 7bdd 84be 1c6e 9c3d 2af7 47bd
00000230: 6ab7 f9bc 6c4c a53e 8f5a 2c3e 99d5 8b3e
00000240: 6016 a93e 3bcb af3d d992 c43b 4999 37bf
00000250: 99cf a53d 983e d3be 038b 133e 652e 89be
00000260: a7a4 5abd c516 b5bf 9143 1cbe 7664 dd3d
00000270: 78dd 423e 7600 433e dc17 b53d 4691 723e
00000280: a736 33bc c0f9 a9bd 55dc c33d 8b8e 943c
00000290: fc8c 72be 4b38 773e 571a 363d 8131 3bbd
000002a0: 78f9 0fbe f703 a83d 9a79 93be 613e 5e3e
000002b0: ce69 0b3d f68e 02bf 9768 0fbf 4482 1d3e
000002c0: bc2f 82be c314 e43b e305 003d afdb a73d
000002d0: d392 81be 22df 38bd 624d 4dbe c93f 22be
000002e0: ae32 c2bd a4a9 113f 48d1 a73e e8f1 30be
000002f0: 6157 84be 75fa 29be a1de 25bd 06dd c73b
00000300: d3db 74be 2634 153e 9b08 b7be d099 483d
00000310: 016b 08bf 2527 c73d c686 623e 5cf6 a83d
00000320: 5ca4 c3be 4718 1b3f 0c6c 2d3e 4ee3 ce3e
00000330: 31f4 8fbe 8b34 cdbd e62d 913e 4693 8dbe
00000340: 2978 2fbe 2c1a 073e 8c0b 5dbf 6322 0f3e
00000350: 41a2 88be ebd2 23bf 80f6 92bd 73ed a1be
00000360: 6548 ec3c 526c 13be e852 fb3e 0559 813d
00000370: fb34 8abe 796c 3f3d 787d d63d 3e90 623e
00000380: 1ac4 e83e 31d4 20be 423b 89be 5f47 34be
00000390: 8b6a 883e bc56 3e3d 886c 57bb 611e 5c3e
000003a0: 3ba9 2ebe 5c3b 42bd 48cc 2bbf 5e2a 723e
000003b0: 9718 c5be 901e 713e cd3d 8fbe eb85 10be
000003c0: ee6b f83d 7e9a 323e 4336 d53e bb6f c13c
000003d0: 115b 85be 1e04 4abe ad9f 803c 8fbb 36bf
000003e0: 2556 c0be 74a9 293d 456e 8fbf 5ec4 cdbc
000003f0: 411c 21be 254e d6be 26c3 b3bf 2c37 9ebe
0.070378095 -1.0274876 0.33186048 0.2326937 -0.064762115 0.12465541 0.16346721 0.18040061
0.07578519 -1.1224738 -0.009107051 -0.52575976 -0.08940718 -0.2487315 0.07230864 -1.3197846
0.095007226 0.073616795 0.046757523 0.06847739 0.09901417 -0.05076361 0.066800155 -0.022016596
0.028625442 -0.062391147 0.012232943 -0.98043084 0.0011018313 -0.07059894 -0.026977971 -0.22596043
0.011160107 0.36089545 0.053601734 -0.12401276 -1.0953963 -0.40874863 -0.10061007 -0.36034364
0.04752967 0.2634989 0.14624201 -0.14570917 0.11318398 -0.16363668 -0.097962186 0.007694987
-0.79930806 -0.09116385 0.24697986 -0.9526044 -0.30065742 0.056810632 -0.043193612 0.034467068
-0.007258398 -0.24790524 -0.08793365 0.03315785 0.5016057 0.15843718 0.029164737 0.38520342
-0.11416303 0.0064228387 -0.4644642 0.081297845 -0.16710171 -0.8024618 0.09875938 0.12195682
-0.9281593 -0.12599118 0.36177334 -0.082385615 0.019985735 0.22981028 -0.10140276 -0.19436106
-0.6855262 0.22512154 0.007948707 0.12334703 -0.2953779 -0.026401246 0.19377905 -0.7018946
-0.15446758 0.11955795 -0.1391726 0.0026019742 -0.9233301 -1.1078639 0.059711665 0.35279155
-0.13683964 0.017030213 0.27140823 0.17373556 -0.069316804 -0.07154993 -0.47529697 0.20001173
0.1627563 -0.8649012 0.148645 -0.08030486 0.45098448 0.06822145 0.14257188 0.5664305
-0.1827953 0.034242205 0.060272533 -0.13976541 -0.14298217 0.011106941 0.37085286 -0.26356655
0.17062859 0.28141204 0.2627339 0.13989204 -0.36869442 0.0058732266 -0.06429978 -0.047325548
0.10801259 -0.35163563 -0.15819114 -0.37319297 -0.92762786 -0.31738067 -0.28587383 -0.95060825
0.12727138 -0.25950226 0.07638189 -0.0488197 -0.030482966 0.32284868 0.1683142 0.273114
0.33024883 0.08583685 0.005998951 -0.7171827 0.08096237 -0.41258693 0.14408498 -0.2679321
-0.05337968 -1.4147574 -0.1526015 0.10810177 0.19029796 0.19043145 0.088424414 0.2368823
-0.010938323 -0.08299589 0.095635094 0.018134376 -0.23686594 0.24142568 0.044458713 -0.045701507
-0.14060009 0.08203881 -0.28803712 0.21703483 0.03403645 -0.5099939 -0.56018966 0.15381724
-0.25427043 0.006960483 0.031255614 0.08196198 -0.2530733 -0.04513467 -0.2004905 -0.15844645
-0.09482323 0.56899476 0.32776856 -0.1727978 -0.25847915 -0.16599448 -0.04049552 0.006099346
-0.23911981 0.14570674 -0.35748753 0.048974812 -0.53288275 0.09724263 0.22121724 0.08250114
-0.38211334 0.6058392 0.16935748 0.40407795 -0.2811599 -0.100197874 0.2835533 -0.27651423
-0.17135681 0.13193578 -0.86345744 0.13977961 -0.2668629 -0.6399371 -0.071759224 -0.31626472
0.028843114 -0.1439679 0.4908669 0.06315807 -0.26993546 0.046734307 0.1047315 0.22125337
0.45462114 -0.15705945 -0.26803023 -0.17605351 0.26643786 0.046469435 -0.0032871086 0.21495964
-0.17056744 -0.04741989 -0.67108583 0.23648974 -0.38495323 0.23546815 -0.27976838 -0.14113586
0.12129961 0.17441747 0.4164296 0.023612848 -0.2604604 -0.19728133 0.01570114 -0.7137994
-0.37565723 0.04142137 -1.1205527 -0.02511805 -0.15733434 -0.41856495 -1.404393 -0.30901468

context_backbone.layers.1.0.bias f4 [64]
00000000: 37c4 e6bd a4ce 61be 559e bbbb 91f0 123d
00000010: 864c b5be af71 64be b555 573d 316e 7abe
00000020: ce20 d2bd 3382 15bf 3e2f 63be 6e56 0bbf
00000030: 2da3 adbd c1b4 acbe da2f c5bd b460 9abd
00000040: fbea 26bf 90e4 adbe d2a1 683e 2f55 3fbe
00000050: 5306 26bc 5a3b aebe d255 bfbe 5e78 87be
00000060: 71e4 63bd bdb9 d4bd dd17 f8bd dd43 9abe
00000070: bb2f 14be 7a4b 09be 644c 6ebe 0f0c 7bbe
00000080: 3984 433c 0f49 42be d8c2 96be 865e b7bd
00000090: ade4 31bb 611e 21bf 07de 1bbe d0db 70bd
000000a0: 198a 543e 4792 9abe 15db 0dbf 5b97 1bbe
000000b0: 21d5 85be f29f d2be 66be aabc 6b69 843d
000000c0: bfc1 813e 9d95 b03d cfd2 893d b958 86be
000000d0: dfcf a1be bd84 19be 838d 83be 2e79 08be
000000e0: 8563 e23e f6be cfbe bbe9 63be 1889 9e3c
000000f0: 862e babe f9de 8fbe 27c4 7c3d 8ced 9a3d
-0.11267894 -0.22051483 -0.0057256618 0.035873953 -0.35409945 -0.22308992 0.05257197 -0.24456097
-0.10260163 -0.58401793 -0.2218599 -0.54428756 -0.08478389 -0.33731654 -0.096282676 -0.07537976
-0.652023 -0.33963442 0.2271798 -0.18684839 -0.010133344 -0.34029657 -0.37370163 -0.2645902
-0.05563778 -0.10386989 -0.121139266 -0.301299 -0.14471333 -0.13407698 -0.23271328 -0.24516319
0.01193338 -0.18973182 -0.2944553 -0.08953576 -0.0027144358 -0.6293698 -0.15221415 -0.05880338
0.20755805 -0.30189726 -0.5541242 -0.15194456 -0.26139167 -0.41137654 -0.020842742 0.064654194
0.2534313 0.086222865 0.06729662 -0.26239565 -0.31603906 -0.14992042 -0.25693902 -0.13327476
0.44216552 -0.4057538 -0.2225713 0.01935248 -0.3636362 -0.28099802 0.061710503 0.0756484
